experiments/marl/smoke_test.pt (torch, 32821 bytes, 9 tensors)

shared.0.weight f4 [64, 32]
00000000: 7165 0a3e 5b3f 163e a3a1 29bd 5249 263e
00000010: dfa5 1ebd b01c 123d a642 b0bd 799e d43d
00000020: 8993 1f3e 06cd 04be 6057 1d3e 8f84 073d
00000030: 1bbd 053e da1f c43c 1c92 ae3d 6777 ccbc
00000040: 958b 0b3e d70c d63c 9c03 a9bd eb90 383d
00000050: f2cd a6bd 48d4 a9bc 860b 93bd 7b2a f03d
00000060: 2ae4 0ebe 50e7 a6bd 0e76 4cbd 13af d9bd
00000070: 6dae 883c fdc9 32be ef7a 233e 2ac5 19be
00000080: ce17 213e 5552 613d 4856 0cbd c162 093e
00000090: f6a1 533d 6144 293e 4aa3 2a3d 2d0f fbbc
000000a0: c048 943d a8d1 b6bc 1d65 d23d 4005 3c3e
000000b0: 5a7e 033e 0ae3 50bd 7140 033e ae66 6d3d
000000c0: 92af ed3d d9a2 a2bd db6f 18be 3225 2ebd
000000d0: 07c5 dfbd 1463 2f3e 97f6 9d3d 6ea9 cb3d
000000e0: d033 a83d 599f bd3c 2584 283e db8e cbbd
000000f0: 58ff 183d 1f1b f7bd b956 a53d 36f4 0dbd
00000100: 7cde 5d3d f8da 16bd ce22 163e bd94 d6bd
00000110: 4ceb d7bd a3ee d7bd 08d1 223e b14c 713d
00000120: 9c2f 2e3e 1664 15be 7b8c 33be 7b9f 0dbe
00000130: 1a8a f3bd e4a3 923d 26a3 813d d369 163e
00000140: 49f7 babd 58ce f6bd fd16 c03d 7056 92bd
00000150: daba db3d f2d2 2bbd 4d1a cf3d 6fa5 0cbe
00000160: e6b3 b6bd 0ec1 5c3d 4e13 193d 1f9c 38bd
00000170: d9cc d73d 021e f63d 3945 03be eb47 c1bd
00000180: a5c0 253e c553 74bd 4059 80bd 4127 2fbe
00000190: 2a54 cfbd 8ee0 343d 8325 bfbc 3f66 03be
000001a0: 2ce0 873b 4a4d f7bd 8293 19be 755c c7bd
000001b0: 296e 1ebe 1886 e6bd d3f2 343e 94c2 083d
000001c0: a721 5f3d 7ad5 28be 0bc7 edbd 6b03 71bd
000001d0: 1673 e23c 6448 1fbe 22fe 9bbd bdbd d8bd
000001e0: 396c 003a 3bb7 86bd b4b3 48bc 0254 f5bd
000001f0: 6880 f8bd c936 d3bd 8dd9 77bd 07e0 0ebe
00000200: 7dc7 173e 0cb4 0fbd 9abf 1b3e 0a9c 613d
00000210: 6049 19be 238b fa3d e339 47bd 63c7 8abd
00000220: 4142 16be 59f6 33be 8e2a 4f3d 962b 1ebd
00000230: 35f3 8c3d 538e 14be df64 063e bfe0 04be
00000240: c60e fabc e13c 173d 32e7 ba3d 8723 123e
00000250: b7e6 243e c488 0fbe 003a 363d e4b8 9bbd
00000260: 1db2 9ebc be7d 07be 0ee2 243e f6db 04be
00000270: f57d c13d 2e78 7e3d 114b 6b3d 1ebc c3bd
00000280: 6cdf 393e 174e 833d ef32 3b3d 4f39 06be
00000290: 724f c83d f8c0 9bbb cf8a 70bd d3d0 343e
000002a0: d689 823d d55c 95bd e94f 7cbd c8cd 893c
000002b0: 51ea fe3d f08b 9dbc be5e 9abd 2249 0ebd
000002c0: f157 d9bd 5633 ba3d 5c37 263e 788c 10be
000002d0: 1deb 883d 0acb ef3d ad12 6d3d 5f12 18bd
000002e0: 0fdc f13d 0727 f33d 2245 bc3d a5bd abbb
000002f0: 5de3 abbc c7ec 9a3c 03f3 b0bb bbf7 dbbc
00000300: e86a e73d 6491 1b3e 0d5d 8fbc 5f1e 22bd
00000310: 1e0e 293b fcee 2cbc 8c13 2e3d 2be9 4a3d
00000320: 7b69 24be 1e9b 85bd 1471 183e b208 8d3d
00000330: 2e0e 10bc 7346 dabd 427f ddbd b026 22be
00000340: a205 6cbd 2186 743d fcd7 e63d fc26 a73d
00000350: ce02 20be 6ab7 d9bd fd8a e4bc e51b 2f3e
00000360: 867c d13c cd83 3bbd eac7 953d d3e4 89bd
00000370: e254 eabd ab1f 043e a09e a4bd 4727 11bd
00000380: f625 3ebe 74f7 d63d bbf7 f93d e312 523d
00000390: 6623 09be a210 3dbe d5bb 1dbe eda3 f23d
000003a0: 3ea4 903d f5b9 0b3e 3e10 9c3d 6c9e 063d
000003b0: 282c 62bc 68cf 16be 48a2 26be cac9 34be
000003c0: 9ed5 733d db58 d3bd 6fe3 3fbd c6ac e8bd
000003d0: 02d5 31bd 5bc5 0bbe 758c 03be c81a 3b3d
000003e0: 2123 86bd 21f6 c43d 2eaf 8ebd 6b0e 12be
000003f0: 2bd6 34bd 4f7f afbd a44d 89bd 9199 39be
0.1351526 0.14672606 -0.041413914 0.16238907 -0.038732406 0.03567189 -0.08606462 0.10381789
0.15583624 -0.12968835 0.15365362 0.033085402 0.1306042 0.02394097 0.08523962 -0.02495928
0.13627465 0.02612917 -0.082526416 0.04506008 -0.0814475 -0.020731106 -0.07179932 0.117268525
-0.13954225 -0.08149588 -0.049917273 -0.10629096 0.016684735 -0.17459865 0.15964864 -0.15016618
0.15731737 0.05501016 -0.03426197 0.13416578 0.05166813 0.1652999 0.04165963 -0.030646885
0.072404385 -0.022316769 0.10273192 0.18361378 0.12841168 -0.05099777 0.12817551 0.05795925
0.11605753 -0.07941217 -0.1488642 -0.04251594 -0.10926252 0.17127639 0.07713049 0.099444255
0.082130075 0.023147272 0.16456659 -0.09939357 0.03735289 -0.1206572 0.08073182 -0.034656726
0.054167256 -0.03682992 0.14661714 -0.10477588 -0.10542926 -0.10543563 0.15900052 0.05891103
0.17010349 -0.14588961 -0.17534058 -0.13830368 -0.11891575 0.07160166 0.06329946 0.14688806
-0.09129197 -0.12051076 0.09379385 -0.07145393 0.107289985 -0.04194922 0.10112438 -0.13734983
-0.08921032 0.05389505 0.037371926 -0.045070764 0.105371185 0.12017442 -0.12819375 -0.094375454
0.1618677 -0.0596502 -0.06267023 -0.17104818 -0.10123475 0.044159465 -0.023333317 -0.12831973
0.0041465964 -0.120752886 -0.14997676 -0.09734432 -0.1547171 -0.11256045 0.17670755 0.03338869
0.054475453 -0.16487685 -0.1161023 -0.05884115 0.027642768 -0.15554959 -0.07616831 -0.10583065
0.0004898939 -0.06577917 -0.012249876 -0.11978914 -0.121338665 -0.10313184 -0.060510207 -0.13952647
0.14822192 -0.035083815 0.15209809 0.05508045 -0.14969397 0.122335695 -0.04863919 -0.06776311
-0.14673711 -0.17574443 0.050577693 -0.038615786 0.068823256 -0.14507417 0.13124417 -0.12976359
-0.030524623 0.036923293 0.09126128 0.14271365 0.16103636 -0.14017016 0.044488907 -0.076036245
-0.01937204 -0.1323156 0.16101858 -0.12974533 0.094478525 0.06212633 0.057444636 -0.09557365
0.18151635 0.06411379 0.04570287 -0.13107799 0.09780778 -0.0047532283 -0.05872613 0.17657785
0.06373946 -0.07293097 -0.061599646 0.016821757 0.12447036 -0.019231766 -0.07537602 -0.034737714
-0.106124766 0.09091823 0.16232055 -0.14116085 0.06685469 0.117086485 0.05787914 -0.037126895
0.11809551 0.11872678 0.091928735 -0.0052411132 -0.020982439 0.018911732 -0.005400063 -0.026851526
0.112996876 0.15192181 -0.017500425 -0.039579745 0.0025795768 -0.010555025 0.04249911 0.049538773
-0.16055863 -0.06523727 0.14886886 0.06886424 -0.008792443 -0.10657968 -0.10815288 -0.1583507
-0.05762256 0.059698228 0.112716645 0.081617326 -0.1562607 -0.106306866 -0.027898306 0.17100485
0.025572073 -0.045779992 0.07313521 -0.06733098 -0.11441971 0.12902705 -0.08038068 -0.03543785
-0.18569168 0.10496417 0.12205454 0.051287543 -0.1339241 -0.18463376 -0.15403683 0.118476726
0.07062577 0.13645156 0.076202855 0.032865927 -0.013804473 -0.14727557 -0.16272843 -0.17655101
0.059529893 -0.10319682 -0.046847757 -0.11361079 -0.04341603 -0.13649504 -0.12846549 0.045679837
-0.06549669 0.09617258 -0.069670066 -0.14263313 -0.04414956 -0.08569204 -0.06704262 -0.18124987

shared.0.bias f4 [64]
00000000: 5e25 a83d 1d8c 833d 277f 12bd 1343 ab3d
00000010: cc72 843d 037d 08be 07dc d5bd 7a34 e6bb
00000020: 705f 893d 0322 b03d 8d83 d7bd 8464 48be
00000030: 7e8e 51bc b0de 10bd aaaa 3f3d d087 c9bc
00000040: b664 0a3e fe40 413c 5630 043e e4e6 eebd
00000050: fec2 a63d b786 493d b212 b5bd d97a b33d
00000060: 6520 32be a4aa 2c3e 9beb 2c3d b8d2 8b3c
00000070: 566c a73d 2bf0 203d 3e30 9b3d 8955 e63d
00000080: 2f47 0dbe ad82 ef3d f380 ecbc 2e62 28bd
00000090: 581a cf3c d1d4 2b3e 4acf c4bd 639d c9bd
000000a0: 7b3d 063e b76b 68bd 414b 6b3d db59 d5bc
000000b0: bbf0 9d3d 7a23 0a3e 187b b7bd 5487 5dbd
000000c0: ab09 a53d 8194 1e3c 2adb dfbc 6144 20be
000000d0: c15e 193e 98eb 8f3c beb2 04bc fc9c 94bd
000000e0: 5de3 0ebd 5ef6 9d3d 3122 85bb 2ecf 1a3e
000000f0: 7a59 563c c1bf cfbc 725a cc3d 26e3 95bb
0.08210252 0.06423209 -0.035765793 0.08362403 0.06467208 -0.13328938 -0.104423575 -0.0070252987
0.067076564 0.08600237 -0.10523138 -0.19569594 -0.01279032 -0.03536862 0.046793617 -0.024600893
0.1351498 0.0117952805 0.12909064 -0.11665133 0.081426606 0.04920074 -0.088414565 0.08763666
-0.1739517 0.16861969 0.04221688 0.017068252 0.0817496 0.039291542 0.07577561 0.11246783
-0.13796686 0.11694846 -0.028870082 -0.041109256 0.025281116 0.16780402 -0.0960985 -0.09844472
0.1310939 -0.05674335 0.057444815 -0.026043823 0.07711931 0.13490096 -0.08959025 -0.054084137
0.08058485 0.009678961 -0.027326185 -0.15651084 0.14977552 0.017568395 -0.008099256 -0.07256505
-0.0348848 0.077130064 -0.004062914 0.15118095 0.013082856 -0.02535999 0.099781886 -0.0045741973

shared.2.weight f4 [64, 64]
00000000: 1862 ccbc 8bee e23c b8e3 c93d e889 ff3c
00000010: e841 b23d 4d07 8a3d e0ca 103d 450f 073d
00000020: dc36 253d b06e 543c dcc9 d93d 82e7 d13d
00000030: 6330 2a3d 59d7 9abc db7a cb3d ed07 e3bd
00000040: cc1a bc3d a6a2 873d 0863 a43d 003d b9bc
00000050: 0c38 d9bd 1c09 9b3d f8df 5fbd b0b6 063d
00000060: 1a09 913d d3e7 07be 7227 adbb 3ce0 35bd
00000070: 86b2 b53d 1ec4 bebd 7a6f 9b3d 48a2 9f3d
00000080: 303d 8d3d 5ec3 f53d 1916 ce3b 9808 e8bd
00000090: cd31 9c3d 29db 07bb 0092 223b 26cc 08be
000000a0: e01c 30bd 858c 98bd 56cb df3d 8647 b63d
000000b0: a139 a33d 7451 af3d 0eb0 9ebd 8b77 8ebd
000000c0: a587 7dbd 7040 4dbd 2fd3 ac3d 0b54 2a3d
000000d0: 8a25 cd3d f2d7 9fbc c814 00be 088b 14bd
000000e0: 5aea b33d 55e4 8a3d 2880 1e3d 0c2f 16bd
000000f0: 084c 05be 3e8e 89bd 3079 853d e884 4ebd
00000100: cce8 743d 0ccc 0b3d 18a7 44bd 8eec 9b3d
00000110: b485 24bd 8014 88bb 0807 43bd 96d5 f2bd
00000120: a01b a53c c8f3 133d 28e4 80bd da0a 9d3d
00000130: 6ea5 e5bd 2cc7 f6bd 3e1e 9ebd 20f3 30bd
00000140: 7072 63bc c0e2 c5bc c0ab 693d 0eac e0bd
00000150: 10c8 963c c0dd 0d3b 143c 073d 087c fe3d
00000160: 088e 9d3d 96bf 8dbd a4c7 d1bd 50e9 f7bc
00000170: a06a 80bd 20d8 323d 0031 963a 26e8 cd3d
00000180: e41d 493d 8048 bcbc 80c7 8c3b d03b f53c
00000190: 7021 7ebc 4493 ce3d 9e2a c8bd 448d 793d
000001a0: 862f a3bd e046 e0bd 4839 d2bc 0880 793d
000001b0: 3ee1 b43d 887b 003d b001 31bc 809e e5bb
000001c0: 248e 4fbd 40c8 37bc 2081 0dbc b0d8 d93d
000001d0: 90d2 953d 7adb ccbd 008d 073a 3875 9dbd
000001e0: f88c a2bc ec75 cbbd a019 053d 9298 b8bd
000001f0: 84ba fc3d f454 c13d 4a38 b0bd c803 f1bd
00000200: 00d1 9f3b f8ec 0ebd 604e 163d 3e4a adbd
00000210: 2c95 513d ae1e ddbd f01b 87bd 6494 86bd
00000220: 9cc0 773d 007a 56bb f805 f6bd ec34 92bd
00000230: 18f1 6cbd 3e86 edbd b81e 833c ec71 363d
00000240: 90e1 bbbc 6cbf 4bbd 00b9 46ba 0c56 cbbd
00000250: f8e0 9bbd 40d4 3abb b26c e33d bc71 1dbd
00000260: 14c7 7d3d 707f 49bd 144b 08bd a2b2 f3bd
00000270: 9817 d43d 3646 f93d 000f 2cbb 98a7 a23d
00000280: a064 d13d c451 7e3d 4ed8 833d a8b5 f3bd
00000290: 428e f0bd 867d c4bd 7025 203d 1c6f ddbd
000002a0: 8e6a c3bd f82a 78bd 92f3 ebbd 009c 3039
000002b0: 08bb 933c b2cf 95bd b49e a73d d060 42bd
000002c0: 5024 10bd 400a c33d 0aca db3d 90f2 6abc
000002d0: dcc6 b7bd 626d 80bd 3865 823c b610 963d
000002e0: 80e5 7e3d 1817 62bd 8c03 f2bd a209 e0bd
000002f0: 60e5 22bd 0086 cd3a 58fa 65bd a86b cabd
00000300: 80d5 573c 4b15 8bbd ae96 c4bd 3a1d d0bd
00000310: 08bd 0abd 496a 103e 9426 483d 4aae ea3b
00000320: 30c0 d23c 10e2 4b3d 00ea 3e3a 4c28 93bd
00000330: 09a3 9bbd 4be2 67bd 593a da3c 98ef abbd
00000340: 502f babc 5c39 3bbd 123b fb3d d422 073e
00000350: 9341 d43d 4b4c 193d 8cc5 25bd 9898 023d
00000360: c4e0 b0bd 0cac abbc 36f0 b23b f897 f0bc
00000370: 6682 f2bd 622f a43d b8cf d23d ea33 8dbd
00000380: 9804 0a3d f083 6dbc 3b39 d03c 80c1 ee3b
00000390: 233b 0d3e a39d 413d 20f7 a1bd 0f22 5fbc
000003a0: c754 be3d d373 8f3d 7d02 053d f824 87bc
000003b0: 8a2a 94bc 04b9 35bd 5209 87bd fc36 5b3d
000003c0: 14f7 843d de07 c43d 4ce4 b93a 47e7 143c
000003d0: 3a73 a53d a834 ae3d 6176 3f3d a053 1d3d
000003e0: e09b d43b 2ecb b5bd c0e7 9d3b 28d3 dfbc
000003f0: d703 133e 9c12 e73d e826 cb3c 48d0 e43d
-0.024949118 0.027701637 0.09857887 0.031193689 0.08703977 0.06739674 0.035349727 0.032973547
0.04033552 0.012965843 0.10634205 0.10249235 0.04155005 -0.018901514 0.09935542 -0.11085496
0.091847986 0.066228196 0.08026701 -0.022612095 -0.10606393 0.07570097 -0.054656953 0.032889068
0.07081814 -0.13272028 -0.0052842433 -0.0444033 0.08871941 -0.0931475 0.07589622 0.077946246
0.06896436 0.12000154 0.0062892553 -0.11329764 0.07626686 -0.0020729995 0.002480626 -0.13359126
-0.042996287 -0.07448677 0.10927455 0.08900361 0.07969976 0.08560458 -0.077484235 -0.06956395
-0.06189694 -0.05011028 0.084387176 0.041584056 0.10016926 -0.01951215 -0.12507927 -0.036265403
0.087849334 0.06781832 0.038696438 -0.03666596 -0.13017285 -0.06716584 0.06517255 -0.050419718
0.059792325 0.03413014 -0.048010916 0.076134786 -0.04016657 -0.0041528344 -0.047614127 -0.118571445
0.020154774 0.03612116 -0.06293517 0.076680854 -0.11213194 -0.12049708 -0.07720612 -0.043200612
-0.0138822645 -0.024155974 0.05704856 -0.10970317 0.018405944 0.0021647066 0.03301628 0.12426001
0.07693106 -0.06921308 -0.102431566 -0.03026262 -0.06270337 0.043663144 0.0011458695 0.100540444
0.04910077 -0.02298379 0.004296243 0.029935747 -0.015510902 0.100866824 -0.097737536 0.060925737
-0.07968049 -0.10951018 -0.02566208 0.060913116 0.08832024 0.03136781 -0.010803625 -0.00700742
-0.050672665 -0.011217177 -0.008636743 0.10637033 0.07315552 -0.10002799 0.0005170852 -0.07688373
-0.01984261 -0.09934601 0.03249514 -0.090134755 0.123402625 0.09440032 -0.08604486 -0.11768299
0.0048772097 -0.03489396 0.036695838 -0.08461426 0.051167652 -0.10796867 -0.065971255 -0.06571272
0.06048642 -0.0032726526 -0.12012857 -0.07139 -0.057847112 -0.1159787 0.016005859 0.044542238
-0.022934705 -0.0497431 -0.0007580668 -0.099285215 -0.07611269 -0.0028507859 0.11104716 -0.038438544
0.061957434 -0.0491938 -0.033274725 -0.11899306 0.10356063 0.12171595 -0.0026254058 0.07942122
0.10224271 0.062089697 0.06437741 -0.118998826 -0.117458835 -0.09594254 0.039098203 -0.10812208
-0.09541808 -0.060587853 -0.11521067 0.00016842782 0.01803352 -0.07315005 0.08184567 -0.04745561
-0.03519088 0.095234394 0.10731895 -0.014340058 -0.08973476 -0.06270863 0.015917405 0.07327406
0.062230587 -0.055197805 -0.11817083 -0.10939337 -0.03976953 0.0015680194 -0.05614695 -0.09883815
0.013173461 -0.06791171 -0.09599052 -0.101618245 -0.03387168 0.14103045 0.048864916 0.00716189
0.025726408 0.049776137 0.00072827935 -0.071854204 -0.07599456 -0.056612294 0.02663915 -0.08395308
-0.022727638 -0.045709 0.12267126 0.1319688 0.1036407 0.037426274 -0.0404716 0.031883806
-0.08636621 -0.020956062 0.0054607643 -0.02936934 -0.11841278 0.0801685 0.102935255 -0.068946674
0.033695787 -0.014496788 0.025417915 0.0072862506 0.1379209 0.047269475 -0.079084635 -0.01361896
0.09293514 0.070045136 0.032473076 -0.01649712 -0.01808669 -0.044365898 -0.065935746 0.053519234
0.06492439 0.09571813 0.0014182418 0.009088344 0.08078618 0.08506137 0.046743754 0.03840983
0.0064883083 -0.08876644 0.0048188865 -0.027322367 0.14356934 0.11282846 0.024798825 0.11172539

shared.2.bias f4 [64]
00000000: e962 a5bd fa1a 91bd 48e3 95bd 9335 fabc
00000010: 703f 98bd f628 9cbd b262 a6bc 2c7c fbbd
00000020: eee9 cc3d 6c0d 2c3d e0a1 febd acdf ffbd
00000030: 8cfc 0ebd 2cf3 043d 43c2 0d3e 7882 9fbc
00000040: 78e9 d13d be3a b4bd c88a d4bc d0be 9ebc
00000050: 0f4b c8bd 00f4 2a3a 5882 073d dc08 9c3d
00000060: 4214 c6bd 3429 1abd c085 9a3b d453 163d
00000070: 33c9 333d 402a bebd 3769 9b3d e2dc b8bd
00000080: b8f6 9abc a824 7f3d 5875 cabb 4445 0fbd
00000090: b28d fcbd 9451 b03d 00f1 37bb 279d 713d
000000a0: 3328 0d3c 8661 bebd fb08 86bd 4089 b63d
000000b0: c3bc 8bbd 2ca2 0ebd 4b8a 5e3d b736 86bd
000000c0: bacb 323d 28e8 78bd 0321 d03c bcd9 1e3d
000000d0: b633 cbbd 1237 93bd 257a ea3c a082 90bc
000000e0: 42f2 ba3d baea 073d 0f49 9fbc 4830 b2bc
000000f0: 0986 72bd 50fc b03d 920f cb3d 06bc 8cbc
-0.08075506 -0.070852235 -0.07318741 -0.030543124 -0.07433975 -0.07625 -0.020310733 -0.12279543
0.10005556 0.042004988 -0.12433219 -0.12493834 -0.034908816 0.03245847 0.13843636 -0.019471392
0.10249609 -0.08800267 -0.025945082 -0.019378096 -0.09779941 0.0006521344 0.03308329 0.07618877
-0.096718326 -0.03763695 0.0047156513 0.03670104 0.04389305 -0.09285402 0.075884275 -0.09026505
-0.018916473 0.062290817 -0.0061785392 -0.034978166 -0.12331714 0.0860931 -0.0028067231 0.058987763
0.008615541 -0.09295945 -0.06544682 0.08912897 -0.06823113 -0.034822628 0.054331105 -0.06553405
0.04365132 -0.060768276 0.025406366 0.038781866 -0.099219725 -0.07188238 0.028622696 -0.017640412
0.09128238 0.033182837 -0.019444017 -0.021751538 -0.059209857 0.08641875 0.09915079 -0.0171795

action_heads.0.weight f4 [10, 64]
00000000: 55d1 94bd ec07 b83d ee4e d03d c974 d83d
00000010: c044 14bb 7c43 153d fa73 d33c e2fc 29bd
00000020: 2e7c fdbd 0053 7abc 2071 5d3d f853 953d
00000030: 60b2 543d f5b5 8a3d cc99 c93d d0f6 c5bc
00000040: 09ff d53d fbb1 223c 9453 35bd 80d2 46bd
00000050: d761 57bd b82b c5bd 4094 ea3c a28e ec3d
00000060: b891 913c d065 8a3c b012 40bd e47e 00bd
00000070: 63bd 9dbc e438 313d 9d91 063d 4ed5 dabc
00000080: fe55 3a3d d8e8 b2bc 3e6a 853c d8ef e33d
00000090: 7459 55bd e2dc ee3d 0a06 8cbd d42c ed3d
000000a0: d70e 5d3d 3895 4d3d 1b03 86bc bc87 0bbd
000000b0: bedc b2bd 8d0a cdbd d0e4 c33d ab71 033e
000000c0: 5195 733d 1c45 48bd 4c66 103d 3b71 863c
000000d0: fa49 ddbd c10e a8bd 99d1 613d 248f 92bc
000000e0: a4ab 2abc c8f6 53bd 26a2 9b3d 522f 81bd
000000f0: adcf 21bd dccd b93d 9c19 f63d 9a2a f43d
00000100: 12aa 6d3d 4080 913b 9a67 c03d 25ac 093e
00000110: c4db 653d 9223 2f3d 7785 593d ec0b 9c3c
00000120: 4af8 a83d 50d5 103d 22d8 d7bd c838 97bd
00000130: 49f7 b4bd 4060 c7bc 37ca f53c 9412 59bd
00000140: 7f72 b6bd bb52 86bd 18e7 593d e043 10bc
00000150: 7da2 323b 70c9 a53c 684d d8bc 5c83 8bbd
00000160: 78f3 6abd f4b0 50bd 789f efbd dbee bfbd
00000170: 2639 c4bc 2c22 403d 3594 0b3e 0ae7 9e3c
00000180: a775 e03d a44b 293d c8aa 95bd c6c2 17bd
00000190: b07b 0cbd 88ff d2bd f069 8f3c ba3b f33c
000001a0: 71ea b7bd 4885 d7bc ad82 c2bd d8ed fe3d
000001b0: 8daf a03d 130b c4bc ddd1 ee3d b968 90bd
000001c0: c170 063e f009 45bd 4a2e 393d 202b e43d
000001d0: a45f 6e3d 35f3 543d 5451 b339 fdd6 bd3c
000001e0: d7ae 043e a50d 79bc 5631 86bc 80db 823c
000001f0: 8846 76bd 7021 acbc 8008 203c 7259 d23d
00000200: ef10 453d 282f 9ebd 4494 9a3d 7258 3cbd
00000210: 540a 043d d897 683c f74f b73d c751 a8bc
00000220: 5c09 50bd 50fd cbbc 00e8 943a d49e 71bd
00000230: abd8 af3d 365c 82bd 8ce6 a23c c68c c4bd
00000240: e697 81bc fdc3 c6bc acd4 4cbd 90d3 853d
00000250: f36d e4bd e0ce 563c c095 3fbc 5423 85bd
00000260: 1815 c73d 3eb5 a03d b4b8 1a3d 66de 443b
00000270: dd96 8e3d 44e6 60bd aec2 c9bd b240 f63d
00000280: a4c4 3fbd b067 cd3c 501a 0938 4e04 d73d
00000290: 82a3 fe3d 383c acbd 80bd aeba 488b cfbd
000002a0: 3002 b63d ba6c f43d 387e 38bd a897 b93c
000002b0: 3e60 aebc b571 f6bc 3977 d73d 2620 dabd
000002c0: 3e78 8fbc 0061 06ba 0357 d3bd 2f82 513d
000002d0: 9ab7 aa3d bf40 cabd 9214 523d 1b05 00bc
000002e0: 6059 f03d b229 fabd 0b3d d93d 7c35 3ebd
000002f0: ed76 d83d 818d 83bd d870 ad3c 0655 143d
00000300: 6c8d 943d 98fa 6f3d ec11 8f3d 33cb fbbc
00000310: 168a cabd 0842 87bb 93ac e03d 62e7 d13d
00000320: e4a0 96bd fa1a b03d 6c46 663d 484b b9bc
00000330: e763 843d 21a2 20bc 0ecf 353c f0be a7bd
00000340: a847 9ebc f734 f13d 7a97 9e3d 40e4 cebd
00000350: 5a9d 3bbc 8411 a33d dc1a 5bbd c842 80bc
00000360: b862 7f3d d227 d73d 8043 e83d 5104 c2bd
00000370: 5b11 fabd c2ea b43d c568 6abc 0c14 de3d
00000380: ab96 ad3d 00e2 47bd 1be8 183d 762d 1f3d
00000390: 4441 37bd dc01 e63d c00c 283c b655 27bd
000003a0: 6dfc f4bd e8e1 cc3d 16a4 03be 78da c23d
000003b0: d075 45bd 2f0d debc a788 433c 8193 f03d
000003c0: f37f adbd e0cf b5bd 078d 8f3d 8ec8 84bd
000003d0: f06a 3cbd 29bd 8a3d ae52 67bd 243a 8f3d
000003e0: 9162 59bd e541 d03d 90e2 f63d 30a3 8d3c
000003f0: 7775 25bd d0a9 8b3d c01b 0f3d 4ab0 96bb
-0.072664894 0.08985886 0.10171305 0.1056915 -0.0022623986 0.03644131 0.025812138 -0.041500933
-0.12377201 -0.015278578 0.054062963 0.072914064 0.051927924 0.06772987 0.098437876 -0.024165541
0.10449035 0.009930129 -0.04426916 -0.048540592 -0.05258354 -0.09627479 0.028635144 0.115506425
0.01776968 0.016894251 -0.04689282 -0.031371012 -0.019255346 0.043267146 0.03285371 -0.02671304
0.045492165 -0.021839544 0.016286012 0.11129731 -0.052087262 0.11663224 -0.06837089 0.11580816
0.05396923 0.050191134 -0.016358903 -0.034064993 -0.087335095 -0.10011778 0.09565127 0.1283633
0.05946857 -0.048894033 0.035253808 0.016411414 -0.108051255 -0.08205939 0.05513153 -0.01789052
-0.010416899 -0.05174902 0.07599287 -0.06307854 -0.039504696 0.09072468 0.12016603 0.11922188
0.05802352 0.0044403374 0.093947604 0.13444574 0.056117788 0.042758532 0.053105798 0.019048654
0.082504824 0.03535968 -0.10539271 -0.07383877 -0.088362284 -0.024337888 0.03000365 -0.052996233
-0.08908557 -0.06558748 0.053198904 -0.008805245 0.0027257495 0.020237654 -0.026404098 -0.06812164
-0.057361096 -0.050950006 -0.11700338 -0.0937173 -0.023953032 0.04690759 0.13630755 0.019397277
0.109599404 0.041331902 -0.073079646 -0.037050985 -0.034297645 -0.10302645 0.01750657 0.029691566
-0.08980263 -0.02630867 -0.09497581 0.12447709 0.07845984 -0.023931062 0.11661122 -0.07051224
0.1312895 -0.04810518 0.04521016 0.11141038 0.05819668 0.051989753 0.00034202135 0.023173803
0.12957321 -0.015201007 -0.016380947 0.015973806 -0.060125858 -0.021012038 0.009767652 0.102709666
0.048111852 -0.07723838 0.07547811 -0.045982786 0.032236412 0.014196359 0.08950799 -0.020546807
-0.050790176 -0.024901062 0.0011360645 -0.05898936 0.08586248 -0.06365244 0.019885324 -0.09597163
-0.015819501 -0.024263376 -0.050007507 0.06534493 -0.11153784 0.013110846 -0.011693418 -0.06500879
0.0972082 0.07847069 0.037773803 0.0030039786 0.06962369 -0.0549071 -0.09851585 0.120240584
-0.04681839 0.025073856 3.268785e-05 0.10498868 0.124335304 -0.08409923 -0.0013331622 -0.10133988
0.08887136 0.119348004 -0.045042247 0.022655323 -0.021286126 -0.030083517 0.10520787 -0.10650663
-0.01751339 -0.00051261485 -0.103193305 0.051149543 0.083358005 -0.098756306 0.05128915 -0.007813717
0.11735797 -0.12214984 0.10607346 -0.046437725 0.10569558 -0.06423474 0.021171972 0.036213897
0.072535366 0.058588594 0.0698584 -0.030736541 -0.09889619 -0.0041277446 0.10970416 0.10249211
-0.07354906 0.08598895 0.056219503 -0.022618905 0.06464367 -0.00980428 0.011096729 -0.08190715
-0.019321278 0.1177768 0.077437356 -0.10102129 -0.01145109 0.07962325 -0.053492412 -0.015656844
0.062350005 0.10505642 0.113409996 -0.094734795 -0.122103415 0.08833839 -0.014307206 0.108436674
0.08476003 -0.048799515 0.037330728 0.038861714 -0.044739977 0.112308234 0.010256946 -0.040853225
-0.11962209 0.10004026 -0.12855563 0.09514326 -0.048208058 -0.027105896 0.011934436 0.11746884
-0.0847167 -0.0887754 0.07009321 -0.06483565 -0.04600042 0.06774361 -0.056475334 0.06993511
-0.053072516 0.101688184 0.12054932 0.017289728 -0.040395226 0.068194985 0.034938574 -0.004598652

action_heads.0.bias f4 [10]
00000000: 1227 b1bd 652c 003e 82bd bd3d dbdd d23d
00000010: 53d2 a0ba 0fbf 87bc 0192 e0bd b5e1 b13d
00000020: e5d8 603b 2763 d6bd
-0.0865003 0.12516935 0.09264661 0.10296222 -0.0012269713 -0.016570596 -0.10965348 0.08685628
0.0034308967 -0.104681306

action_heads.1.weight f4 [2, 64]
00000000: a7d1 ef3d 0066 84bc 7ef8 993d 6052 a7bc
00000010: e817 a1bc 8f11 d33d 5c16 d03d 6bdf 85bd
00000020: c0f2 7f3b 2ae3 ad3d a0da c43b 7888 b8bc
00000030: e93e e23d d3a5 db3d c74d 11bd 5ad3 c13d
00000040: 655a 5ebc ac0e b437 265b cd3d f0e4 1ebc
00000050: cdd3 6cbc 0083 debc 14bd d5bd 7438 c63d
00000060: acd7 c8bd 647e c4bd 5898 8a3c c986 81bc
00000070: c5f3 393b 3021 213c a9de f53d 7c4f fdbd
00000080: 3c5f 9dbd d8e4 bc3c 3b58 ddbd d25c ccbd
00000090: ba28 c43d 3040 463d d0d0 1ebd 041d 073d
000000a0: f79f 813c 00c5 49bc 9ece cc3d 00f0 0bb8
000000b0: 3a83 ac3d bb81 cbbd 5e73 64bd a5cf 783c
000000c0: 5fca 873d 5452 50bd 2a32 ae3d 46a2 d7bd
000000d0: ac4d 43bd 9d0c bb3d 0833 c7bd 2b36 f5bd
000000e0: ce69 0abd 741a c8bd fe17 113d 8009 b4bc
000000f0: e370 19bd 1eed 8c3d 604e ee3b faa1 f1bd
00000100: e519 e8bd 5ac7 a03d f4cc 5c3d f6b8 903d
00000110: f46b d9bd da61 8dbc 182f df3d ae2b dd3d
00000120: dc09 ae3d 6ea7 ed3d 4471 20bd cc2e c6bd
00000130: db61 923d 7989 ab3d 6d8f 12bd 1030 3fbc
00000140: cf39 9ebb 4f87 dbbd 7811 54bd 383d 22bd
00000150: fb69 473d 7063 15bd a413 673d a083 e63d
00000160: 9048 dabc 1099 f9bc 14cb a0bd fcd8 e1bb
00000170: a70c e6bd 9c09 ad3d cdaf e43d 4f0f 123d
00000180: fb91 f53d daf2 803d cf23 a33d 7a90 ee3d
00000190: 3402 b0bd c0ac 20bc d859 403d d40b 09bd
000001a0: 573a a9bd c0c3 20bd aa40 6ebd 5c93 33bd
000001b0: 3aea b9bd 45f7 11bd 08e5 9c3d 0c53 48bd
000001c0: 8502 5c3d 3e87 d2bd 7ad3 96bd 3b49 6e3c
000001d0: d612 ed3d 0503 e7bd beb2 6e3d 6291 c73c
000001e0: a796 ccbd 780d c7bd 0696 843d a4d4 7fbd
000001f0: 80c4 b43d 3963 b0bd 6664 c13d fe88 6fbd
0.1170991 -0.016161919 0.07518099 -0.020425022 -0.01966472 0.103060834 0.10160515 -0.06536754
0.0039054602 0.08490594 0.0060075074 -0.02252601 0.110471554 0.10724988 -0.035474565 0.0946414
-0.013571356 2.1464504e-05 0.10027151 -0.009698138 -0.014454794 -0.027162075 -0.104364544 0.09678736
-0.09806761 -0.095944196 0.016918346 -0.01581134 0.0028374058 0.009834573 0.1200536 -0.12368676
-0.0768418 0.02305834 -0.10807844 -0.099786416 0.095780805 0.048401058 -0.038773358 0.032986656
0.015823347 -0.012315035 0.100003466 -3.33637e-05 0.08423467 -0.099368535 -0.055774085 0.015186225
0.06630396 -0.050859764 0.08505662 -0.10528998 -0.047681496 0.09133265 -0.0972653 -0.11973222
-0.03379231 -0.097706705 0.03542327 -0.021977186 -0.037461173 0.06881164 0.0072725266 -0.11798473
-0.11333064 0.07850523 0.053906396 0.070665285 -0.106162935 -0.017258573 0.10897654 0.10799347
0.08497974 0.116042 -0.03917052 -0.096768945 0.07147571 0.0837583 -0.035781313 -0.011669174
-0.0048286687 -0.107191674 -0.051774472 -0.039609164 0.048685055 -0.036471784 0.056415215 0.11255574
-0.026645929 -0.030468494 -0.07851234 -0.0068923216 -0.11232882 0.084490985 0.11166344 0.03565913
0.11990734 0.0629632 0.07965814 0.116486505 -0.0859417 -0.009806812 0.04696068 -0.033458546
-0.082630806 -0.03924918 -0.058167137 -0.043841705 -0.09077878 -0.035636205 0.07660872 -0.048907325
0.05371334 -0.10279702 -0.07364555 0.014543827 0.11575858 -0.11279873 0.05827593 0.024361316
-0.09989672 -0.09719366 0.06473927 -0.06245865 0.08826542 -0.08612675 0.094429776 -0.058480255

action_heads.1.bias f4 [2]
00000000: a2b2 423d 3ae6 253d
0.04753364 0.040502764

value_head.weight f4 [1, 64]
00000000: 2f8d b4bd b841 86bd 180c f8bc 93ce e63c
00000010: 9cdc 7c3d 3d0c 39bd cbf1 363d 1f30 7abd
00000020: 245f 73bd 2c0f a73d 643a 0cbd ec50 e0bd
00000030: dd03 0b3d 4e39 1ebb e10b 803d 4897 82bd
00000040: fdde 103d 6dd5 33bd 8ab7 9abd 4814 ea3c
00000050: de24 873d d870 bd3c 6078 ec3d 30da 3d3c
00000060: c027 2e3c a0df 85bc 4280 f7bd b490 963d
00000070: cfb9 fe3d 90f1 4a3c e49c a5bd 18ad 0d3e
00000080: 6ae2 633d a22a b93d 2f83 ad3d b1c5 463d
00000090: 08da 16bd b83a d23c f8bd 243d 72c1 c3bb
000000a0: 7470 92bd d689 86bd 2076 c7bd 883f 48bd
000000b0: a19d 7bbc e4ce 033e 4d42 67bd 7b5e eabd
000000c0: 61e7 c83d 7ab9 dc3d 0be8 b3bd 8849 dd3c
000000d0: 94c7 223d 7ffe d73d d4c3 babb a10d a93d
000000e0: da0b fa3d deef d63d 1d35 b53d 56af 9b3d
000000f0: 7513 e1bd aa2b 663d 7a6b c53d a9cb b6bd
-0.08815991 -0.065555036 -0.030279204 0.028174674 0.061733827 -0.045177687 0.044664185 -0.061081048
-0.059416905 0.08157191 -0.034235373 -0.109529346 0.03393923 -0.0024143043 0.06252266 -0.06376511
0.03536891 -0.04390471 -0.075545385 0.028574124 0.06598829 0.023125097 0.11546397 0.0115876645
0.010629594 -0.016341984 -0.1208501 0.07351819 0.12437784 0.012386695 -0.08086565 0.13835561
0.055635847 0.09041335 0.08472287 0.048528377 -0.036829025 0.025662765 0.04022023 -0.005973988
-0.07150355 -0.06569259 -0.097393274 -0.048888713 -0.015357406 0.12871891 -0.056459714 -0.11443802
0.09809757 0.10777564 -0.08784493 0.027012601 0.039741114 0.10546588 -0.005699614 0.08254553
0.12209292 0.1049497 0.08848021 0.07601802 -0.10990039 0.056193985 0.0963964 -0.08925564
