experiments/marl/smoke_test_fixed.pt (torch, 32917 bytes, 9 tensors)

shared.0.weight f4 [64, 32]
0	0x3e0a6571	0.1351526
1	0x3e163f5b	0.14672606
2	0xbd29a1a3	-0.041413914
3	0x3e264952	0.16238907
4	0xbd1ea5df	-0.038732406
5	0x3d121cb0	0.03567189
6	0xbdb042a6	-0.08606462
7	0x3dd49e79	0.10381789
8	0x3e1f9389	0.15583624
9	0xbe04cd06	-0.12968835
10	0x3e1d5760	0.15365362
11	0x3d07848f	0.033085402
12	0x3e05bd1b	0.1306042
13	0x3cc41fda	0.02394097
14	0x3dae921c	0.08523962
15	0xbccc7767	-0.02495928
16	0x3e0b8b95	0.13627465
17	0x3cd60cd7	0.02612917
18	0xbda9039c	-0.082526416
19	0x3d3890eb	0.04506008
20	0xbda6cdf2	-0.0814475
21	0xbca9d448	-0.020731106
22	0xbd930b86	-0.07179932
23	0x3df02a7b	0.117268525
24	0xbe0ee42a	-0.13954225
25	0xbda6e750	-0.08149588
26	0xbd4c760e	-0.049917273
27	0xbdd9af13	-0.10629096
28	0x3c88ae6d	0.016684735
29	0xbe32c9fd	-0.17459865
30	0x3e237aef	0.15964864
31	0xbe19c52a	-0.15016618
32	0x3e23790a	0.15964141
33	0x3d54aeaf	0.051924404
34	0xbd08a0d0	-0.033356488
35	0x3e0672c0	0.13129711
36	0x3d4e0970	0.05030197
37	0x3e28430b	0.16431825
38	0x3d324d35	0.04353066
39	0xbd05259f	-0.03250658
40	0x3d90598e	0.07048331
41	0xbcb79c3d	-0.022413367
42	0x3dd28579	0.10279364
43	0x3e3c1587	0.18367587
44	0x3e039e4f	0.12853359
45	0xbd50befd	-0.05096339
46	0x3e034c4c	0.12822074
47	0x3d6cd966	0.057824515
48	0x3dedc199	0.116091914
49	0xbda2827d	-0.07935045
50	0xbe1863ff	-0.14881895
51	0xbd2de411	-0.04245383
52	0xbde00ba3	-0.109397195
53	0x3e2f8305	0.17139824
54	0x3d9e0b5e	0.07717012
55	0x3dcbbe35	0.099483885
56	0x3da8489a	0.08216973
57	0x3cbdf27d	0.023186916
58	0x3e288e89	0.16460623
59	0xbdcb7a1a	-0.099353984
60	0x3d1928e9	0.03739253
61	0xbdf71b1f	-0.1206572
62	0x3da56b81	0.08077145
63	0xbd0dcaa9	-0.0346171
64	0x3d5dde7c	0.054167256
65	0xbd16daf8	-0.03682992
66	0x3e1622ce	0.14661714
67	0xbdd694bd	-0.10477588
68	0xbdd7eb4c	-0.10542926
69	0xbdd7eea3	-0.10543563
70	0x3e22d108	0.15900052
71	0x3d714cb1	0.05891103
72	0x3e2e2f9c	0.17010349
73	0xbe156416	-0.14588961
74	0xbe338c7b	-0.17534058
75	0xbe0d9f7b	-0.13830368
76	0xbdf38a1a	-0.11891575
77	0x3d92a3e4	0.07160166
78	0x3d81a326	0.06329946
79	0x3e1669d3	0.14688806
80	0xbdbaf749	-0.09129197
81	0xbdf6ce58	-0.12051076
82	0x3dc016fd	0.09379385
83	0xbd925670	-0.07145393
84	0x3ddbbada	0.107289985
85	0xbd2bd2f2	-0.04194922
86	0x3dcf1a4d	0.10112438
87	0xbe0ca56f	-0.13734983
88	0xbdb6b3e6	-0.08921032
89	0x3d5cc10e	0.05389505
90	0x3d19134e	0.037371926
91	0xbd389c1f	-0.045070764
92	0x3dd7ccd9	0.105371185
93	0x3df61e02	0.12017442
94	0xbe034539	-0.12819375
95	0xbdc147eb	-0.094375454
96	0x3e25c0a5	0.1618677
97	0xbd7453c5	-0.0596502
98	0xbd805940	-0.06267023
99	0xbe2f2741	-0.17104818
100	0xbdcf542a	-0.10123475
101	0x3d34e08e	0.044159465
102	0xbcbf2583	-0.023333317
103	0xbe03663f	-0.12831973
104	0x3b87e02c	0.0041465964
105	0xbdf74d4a	-0.120752886
106	0xbe199382	-0.14997676
107	0xbdc75c75	-0.09734432
108	0xbe1e6e29	-0.1547171
109	0xbde68618	-0.11256045
110	0x3e34f2d3	0.17670755
111	0x3d08c294	0.03338869
112	0x3d5f21a7	0.054475453
113	0xbe28d57a	-0.16487685
114	0xbdedc70b	-0.1161023
115	0xbd71036b	-0.05884115
116	0x3ce27316	0.027642768
117	0xbe1f4864	-0.15554959
118	0xbd9bfe22	-0.07616831
119	0xbdd8bdbd	-0.10583065
120	0x3a006c39	0.0004898939
121	0xbd86b73b	-0.06577917
122	0xbc48b3b4	-0.012249876
123	0xbdf55402	-0.11978914
124	0xbdf88068	-0.121338665
125	0xbdd336c9	-0.10313184
126	0xbd77d98d	-0.060510207
127	0xbe0ee007	-0.13952647
128	0x3e17c77d	0.14822192
129	0xbd0fb40c	-0.035083815
130	0x3e1bbf9a	0.15209809
131	0x3d619c0a	0.05508045
132	0xbe194960	-0.14969397
133	0x3dfa8b23	0.122335695
134	0xbd4739e3	-0.04863919
135	0xbd8ac763	-0.06776311
136	0xbe164241	-0.14673711
137	0xbe33f659	-0.17574443
138	0x3d4f2a8e	0.050577693
139	0xbd1e2b96	-0.038615786
140	0x3d8cf335	0.068823256
141	0xbe148e53	-0.14507417
142	0x3e0664df	0.13124417
143	0xbe04e0bf	-0.12976359
144	0xbcfa0ec6	-0.030524623
145	0x3d173ce1	0.036923293
146	0x3dbae732	0.09126128
147	0x3e122387	0.14271365
148	0x3e24e6b7	0.16103636
149	0xbe0f88c4	-0.14017016
150	0x3d363a00	0.044488907
151	0xbd9bb8e4	-0.076036245
152	0xbc9eb21d	-0.01937204
153	0xbe077dbe	-0.1323156
154	0x3e24e20e	0.16101858
155	0xbe04dbf6	-0.12974533
156	0x3dc17df5	0.094478525
157	0x3d7e782e	0.06212633
158	0x3d6b4b11	0.057444636
159	0xbdc3bc1e	-0.09557365
160	0x3e3bdce2	0.18345979
161	0x3d7b55ff	0.06136131
162	0x3d3d194c	0.046166703
163	0xbe091a59	-0.13388957
164	0x3dc56e08	0.096401274
165	0xbbb40974	-0.005494291
166	0xbd693bba	-0.056941725
167	0x3e32abde	0.17448375
168	0x3d7cc60f	0.06171232
169	0xbd94f67f	-0.07273578
170	0xbd7c2573	-0.06155915
171	0x3c898ead	0.016791666
172	0x3dff0961	0.12452961
173	0xbc9db43a	-0.019250978
174	0xbd9a610f	-0.07538044
175	0xbd0f0c94	-0.034924105
176	0xbdd96203	-0.106143974
177	0x3dba4891	0.09095872
178	0x3e263637	0.16231619
179	0xbe10945e	-0.14119098
180	0x3d888966	0.06666832
181	0x3defea1a	0.11714573
182	0x3d6d088b	0.057869475
183	0xbd181c7f	-0.03713655
184	0x3df1d6fe	0.11808585
185	0x3df321f6	0.11871712
186	0x3dbc400f	0.09191906
187	0xbbac0ea8	-0.0052507706
188	0xbcabf78c	-0.020992063
189	0x3c9aecc7	0.018911732
190	0xbbb143f8	-0.005409714
191	0xbcdc0bf9	-0.026861178
192	0x3de76ae8	0.112996876
193	0x3e1b9164	0.15192181
194	0xbc8f5d0d	-0.017500425
195	0xbd221e5f	-0.039579745
196	0x3b290e1e	0.0025795768
197	0xbc2ceefc	-0.010555025
198	0x3d2e138c	0.04249911
199	0x3d4ae92b	0.049538773
200	0xbe24697b	-0.16055863
201	0xbd859b1e	-0.06523727
202	0x3e187114	0.14886886
203	0x3d8d08b2	0.06886424
204	0xbc100e2e	-0.008792443
205	0xbdda4673	-0.10657968
206	0xbddd7f42	-0.10815288
207	0xbe2226b0	-0.1583507
208	0xbd6c05a2	-0.05762256
209	0x3d748621	0.059698228
210	0x3de6d7fc	0.112716645
211	0x3da726fc	0.081617326
212	0xbe2002ce	-0.1562607
213	0xbdd9b76a	-0.106306866
214	0xbce48afd	-0.027898306
215	0x3e2f1be5	0.17100485
216	0x3cd17c86	0.025572073
217	0xbd3b83cd	-0.045779992
218	0x3d95c7ea	0.07313521
219	0xbd89e4d3	-0.06733098
220	0xbdea54e2	-0.11441971
221	0x3e041fab	0.12902705
222	0xbda49ea0	-0.08038068
223	0xbd112747	-0.03543785
224	0xbe3e40c4	-0.18579394
225	0x3dd76908	0.1051808
226	0x3df98421	0.12183405
227	0x3d570039	0.052490447
228	0xbe095eca	-0.13415065
229	0xbe3da7e5	-0.18521078
230	0xbe1f01ad	-0.15527983
231	0x3df2fba6	0.118644044
232	0x3d95dbd0	0.073173165
233	0x3e0b041d	0.13575788
234	0x3d9c01ef	0.07617556
235	0x3d06ad7e	0.0328803
236	0xbc624315	-0.013809939
237	0xbe16cf3a	-0.14727488
238	0xbe26aaff	-0.16276167
239	0xbe34afab	-0.17645137
240	0x3d73d648	0.059530526
241	0xbdd3672a	-0.10322411
242	0xbd400654	-0.046881035
243	0xbde8a53b	-0.1135964
244	0xbd316c88	-0.043316394
245	0xbe0bc6c5	-0.13650043
246	0xbe0394e1	-0.12849762
247	0x3d3af90b	0.045647662
248	0xbd863402	-0.065528885
249	0x3dc4e540	0.096140385
250	0xbd8ec00c	-0.06970224
251	0xbe1216e0	-0.14266539
252	0xbd34f7ea	-0.04418174
253	0xbdaf7f4f	-0.08569204
254	0xbd895e85	-0.06707481
255	0xbe39a203	-0.18128209

shared.0.bias f4 [64]
0	0x3da8255e	0.08210252
1	0x3d83a0e4	0.06427172
2	0xbd127f27	-0.035765793
3	0x3dab4313	0.08362403
4	0x3d8472cc	0.06467208
5	0xbe087f8d	-0.13329907
6	0xbdd5dc07	-0.104423575
7	0xbbe74255	-0.007057468
8	0x3d895f70	0.067076564
9	0x3db02203	0.08600237
10	0xbdd7838d	-0.10523138
11	0xbe486219	-0.19568671
12	0xbc522f7f	-0.012828707
13	0xbd10d920	-0.035363317
14	0x3d3fb446	0.04680278
15	0xbcc97ecc	-0.024596594
16	0x3e0a64b6	0.1351498
17	0x3c4140fe	0.0117952805
18	0x3e043056	0.12909064
19	0xbdef173a	-0.11674352
20	0x3da67176	0.0812711
21	0x3d49c290	0.049257815
22	0xbdb512b2	-0.088414565
23	0x3db37ad9	0.08763666
24	0xbe322065	-0.1739517
25	0x3e2cb793	0.16866903
26	0x3d2cdd4d	0.042203236
27	0x3c8bd2b8	0.017068252
28	0x3da76c56	0.0817496
29	0x3d21085f	0.039314624
30	0x3d9b303e	0.07577561
31	0x3de65589	0.11246783
32	0xbe0d472f	-0.13796686
33	0x3def82ad	0.11694846
34	0xbcec6fcb	-0.0288619
35	0xbd28622e	-0.041109256
36	0x3ccf5f54	0.02531401
37	0x3e2bd80a	0.16781631
38	0xbdc4cf4a	-0.0960985
39	0xbdc992f4	-0.09842482
40	0x3e063ac1	0.1310835
41	0xbd689cb6	-0.056790076
42	0x3d6b98c3	0.05751873
43	0xbcd559db	-0.026043823
44	0x3d9dfc7b	0.077141725
45	0x3e0a237a	0.13490096
46	0xbdb77b18	-0.08959025
47	0xbd5cc040	-0.05389428
48	0x3da521be	0.080630764
49	0x3c1e9481	0.009678961
50	0xbcdf3534	-0.027247049
51	0xbe1f0157	-0.15527855
52	0x3e195ec1	0.14977552
53	0x3c8fe9de	0.017567571
54	0xbc04ee5c	-0.00811347
55	0xbd949cfc	-0.07256505
56	0xbd0ee35d	-0.0348848
57	0x3d9daf02	0.07699396
58	0xbb852231	-0.004062914
59	0x3e1acf2e	0.15118095
60	0x3c552c0f	0.013010993
61	0xbccfbfc1	-0.02535999
62	0x3dcc5a72	0.099781886
63	0xbb95e326	-0.0045741973

shared.2.weight f4 [64, 64]
0	0xbccc6218	-0.024949118
1	0x3ce2cca8	0.027685478
2	0x3dc9e3b8	0.09857887
3	0x3cff89e8	0.031193689
4	0x3db241e8	0.08703977
5	0x3d8a0648	0.06739479
6	0x3d10cae0	0.035349727
7	0x3d071cf8	0.03298661
8	0x3d2536dc	0.04033552
9	0x3c546eb0	0.012965843
10	0x3dd9c9dc	0.10634205
11	0x3dd1e2c2	0.10248329
12	0x3d2a27d5	0.041541893
13	0xbc9abe3e	-0.018889543
14	0x3dcb7786	0.09934907
15	0xbde306b6	-0.110852644
16	0x3dbc1acc	0.091847986
17	0x3d87a2a6	0.066228196
18	0x3da46308	0.08026701
19	0xbcb95974	-0.022625662
20	0xbdd935c3	-0.10605957
21	0x3d9b095a	0.07570143
22	0xbd5fdff8	-0.054656953
23	0x3d06b6b0	0.032889068
24	0x3d91091a	0.07081814
25	0xbe080a7e	-0.13285252
26	0xbbad51ec	-0.005289307
27	0xbd35e03c	-0.0444033
28	0x3db5b286	0.08871941
29	0xbdbec89d	-0.09315608
30	0x3d9b6f7a	0.07589622
31	0x3d9fa248	0.077946246
32	0x3d8d3d30	0.06896436
33	0x3df5c35e	0.12000154
34	0x3bcdc839	0.006279972
35	0xbde80898	-0.11329764
36	0x3d9c2eba	0.076261
37	0xbb0818d6	-0.0020766756
38	0x3b229200	0.002480626
39	0xbe08cd92	-0.13359669
40	0xbd301cb6	-0.04299613
41	0xbd988b66	-0.07448463
42	0x3ddfcb18	0.10927409
43	0x3db64786	0.08900361
44	0x3da335e8	0.07969266
45	0x3daf5174	0.08560458
46	0xbd9eb00e	-0.077484235
47	0xbd8eab1e	-0.06966232
48	0xbd7d8d4f	-0.06190234
49	0xbd4d4070	-0.05011028
50	0x3daccd5f	0.08437609
51	0x3d2df5ec	0.042470858
52	0x3dcd258a	0.10016926
53	0xbc9fcae6	-0.01950593
54	0xbe001470	-0.12507796
55	0xbd148b08	-0.036265403
56	0x3db3ea5a	0.087849334
57	0x3d8a9e5b	0.06768485
58	0x3d1e8028	0.038696438
59	0xbd162f0c	-0.03666596
60	0xbe054b1b	-0.13016932
61	0xbd898e3e	-0.06716584
62	0x3d857930	0.06517255
63	0xbd4e84e8	-0.050419718
64	0x3d74e8cc	0.059792325
65	0x3d0bcc0c	0.03413014
66	0xbd44a718	-0.048010916
67	0x3d9bec8e	0.076134786
68	0xbd2485b4	-0.04016657
69	0xbb881480	-0.0041528344
70	0xbd430708	-0.047614127
71	0xbdf2d596	-0.118571445
72	0x3ca51ba0	0.020154774
73	0x3d13f3c8	0.03612116
74	0xbd80e428	-0.06293517
75	0x3d9d0ada	0.076680854
76	0xbde5a56e	-0.11213194
77	0xbdf6c72c	-0.12049708
78	0xbd9e1e3e	-0.07720612
79	0xbd30f320	-0.043200612
80	0xbc637270	-0.0138822645
81	0xbcc5e2c0	-0.024155974
82	0x3d69abc0	0.05704856
83	0xbde0ac0e	-0.10970317
84	0x3c96c810	0.018405944
85	0x3b0dddc0	0.0021647066
86	0x3d073c14	0.03301628
87	0x3dfe7c08	0.12426001
88	0x3d9d8e08	0.07693106
89	0xbd8dbf96	-0.06921308
90	0xbdd1c7a4	-0.102431566
91	0xbcf7e950	-0.03026262
92	0xbd806aa0	-0.06270337
93	0x3d32d820	0.043663144
94	0x3a963100	0.0011458695
95	0x3dcde826	0.100540444
96	0x3d491de4	0.04910077
97	0xbcbc4880	-0.02298379
98	0x3b8cc780	0.004296243
99	0x3cf53bd0	0.029935747
100	0xbc7e2170	-0.015510902
101	0x3dce9344	0.100866824
102	0xbdc82a9e	-0.097737536
103	0x3d798d44	0.060925737
104	0xbda32f86	-0.07968049
105	0xbde046e0	-0.10951018
106	0xbcd23948	-0.02566208
107	0x3d798008	0.060913116
108	0x3db4e13e	0.08832024
109	0x3d007b88	0.03136781
110	0xbc3101b0	-0.010803625
111	0xbbe59e80	-0.00700742
112	0xbd4f8e24	-0.050672665
113	0xbc37c840	-0.011217177
114	0xbc0d8120	-0.008636743
115	0x3dd9d8b0	0.10637033
116	0x3d95d290	0.07315552
117	0xbdccdb7a	-0.10002799
118	0x3a078d00	0.0005170852
119	0xbd9d7538	-0.07688373
120	0xbca28cf8	-0.01984261
121	0xbdcb75ec	-0.09934601
122	0x3d0519a0	0.03249514
123	0xbdb89892	-0.090134755
124	0x3dfcba84	0.123402625
125	0x3dc154f4	0.09440032
126	0xbdb0384a	-0.08604486
127	0xbdf103c8	-0.11768299
128	0x3b9fd100	0.0048772097
129	0xbd0eecf8	-0.03489396
130	0x3d164e60	0.036695838
131	0xbdad4a3e	-0.08461426
132	0x3d51952c	0.051167652
133	0xbddd1eae	-0.10796867
134	0xbd871bf0	-0.065971255
135	0xbd869464	-0.06571272
136	0x3d77c09c	0.06048642
137	0xbb567a00	-0.0032726526
138	0xbdf605f8	-0.12012857
139	0xbd9234ec	-0.07139
140	0xbd6cf118	-0.057847112
141	0xbded863e	-0.1159787
142	0x3c831eb8	0.016005859
143	0x3d3671ec	0.044542238
144	0xbcbbe190	-0.022934705
145	0xbd4bbf6c	-0.0497431
146	0xba46b900	-0.0007580668
147	0xbdcb560c	-0.099285215
148	0xbd9be0f8	-0.07611269
149	0xbb3ad440	-0.0028507859
150	0x3de36cb2	0.11104716
151	0xbd1d71bc	-0.038438544
152	0x3d7dc714	0.061957434
153	0xbd497f70	-0.0491938
154	0xbd084b14	-0.033274725
155	0xbdf3b2a2	-0.11899306
156	0x3dd41798	0.10356063
157	0x3df94636	0.12171595
158	0xbb2c0f00	-0.0026254058
159	0x3da2a798	0.07942122
160	0x3dd164a0	0.10224271
161	0x3d7e51c4	0.062089697
162	0x3d83d84e	0.06437741
163	0xbdf3b5a8	-0.118998826
164	0xbdf08e42	-0.117458835
165	0xbdc47d86	-0.09594254
166	0x3d202570	0.039098203
167	0xbddd6f1c	-0.10812208
168	0xbdc36a8e	-0.09541808
169	0xbd782af8	-0.060587853
170	0xbdebf392	-0.11521067
171	0x39309c00	0.00016842782
172	0x3c93bb08	0.01803352
173	0xbd95cfb2	-0.07315005
174	0x3da79eb4	0.08184567
175	0xbd4260d0	-0.04745561
176	0xbd102450	-0.03519088
177	0x3dc30a40	0.095234394
178	0x3ddbca0a	0.10731895
179	0xbc6af290	-0.014340058
180	0xbdb7c6dc	-0.08973476
181	0xbd806d62	-0.06270863
182	0x3c826538	0.015917405
183	0x3d9610b6	0.07327406
184	0x3d7ee580	0.062230587
185	0xbd621718	-0.055197805
186	0xbdf2038c	-0.11817083
187	0xbde009a2	-0.10939337
188	0xbd22e560	-0.03976953
189	0x3acd8600	0.0015680194
190	0xbd65fa58	-0.05614695
191	0xbdca6ba8	-0.09883815
192	0x3c57d580	0.013173461
193	0xbd8b1118	-0.0679037
194	0xbdc496ae	-0.09599052
195	0xbdd01d3a	-0.101618245
196	0xbd0abd08	-0.03387168
197	0x3e106c67	0.14103852
198	0x3d482694	0.048864916
199	0x3be841d1	0.007087924
200	0x3cd2c030	0.025726408
201	0x3d4be210	0.049776137
202	0x3a3eea00	0.00072827935
203	0xbd932149	-0.07184083
204	0xbd99dab0	-0.075124145
205	0xbd67ec79	-0.056622002
206	0x3cda5633	0.026652431
207	0xbdabecf1	-0.08394802
208	0xbcba2f50	-0.022727638
209	0xbd3b395c	-0.045709
210	0x3dfb3b12	0.12267126
211	0x3e07251a	0.13197747
212	0x3dd444a5	0.103646554
213	0x3d1953f1	0.03743357
214	0xbd25c58c	-0.0404716
215	0x3d029898	0.031883806
216	0xbdb0e0c4	-0.08636621
217	0xbcaa96b6	-0.020823818
218	0x3bb3287a	0.0054674717
219	0xbcf097f8	-0.02936934
220	0xbdf28266	-0.11841278
221	0x3da435d9	0.08018083
222	0x3dd2cfb8	0.102935255
223	0xbd8d33ea	-0.068946674
224	0x3d0a0498	0.033695787
225	0xbc6d83f0	-0.014496788
226	0x3cd04181	0.02542186
227	0x3beec180	0.0072862506
228	0x3e0d3c86	0.13792619
229	0x3d41a414	0.047275618
230	0xbda1f720	-0.079084635
231	0xbc5f26f1	-0.013620124
232	0x3dbe533d	0.0929322
233	0x3d8f7760	0.07005191
234	0x3d050b33	0.032481384
235	0xbc8724f8	-0.01649712
236	0xbc94163e	-0.018077012
237	0xbd35b904	-0.044365898
238	0xbd870952	-0.065935746
239	0x3d5bbce0	0.053646922
240	0x3d84f9b4	0.064929396
241	0x3dc407de	0.09571813
242	0x3abb4db4	0.0014290125
243	0x3c129d20	0.008948594
244	0x3da5733a	0.08078618
245	0x3dae36f0	0.08506572
246	0x3d3f7a6c	0.04674761
247	0x3d1d53a0	0.03840983
248	0x3bd49be0	0.0064883083
249	0xbdb632de	-0.08896421
250	0x3b9de7c0	0.0048188865
251	0xbcdfd328	-0.027322367
252	0x3e130496	0.14357218
253	0x3de7129c	0.11282846
254	0x3ccb26e8	0.024798825
255	0x3de4d048	0.11172539

shared.2.bias f4 [64]
0	0xbda56451	-0.080757745
1	0xbd911afa	-0.070852235
2	0xbd95e348	-0.07318741
3	0xbcfa2356	-0.030534428
4	0xbd983f70	-0.07433975
5	0xbd9c1b1b	-0.076223575
6	0xbca65598	-0.020304486
7	0xbdfb8cb1	-0.12282694
8	0x3dcce9ee	0.10005556
9	0x3d2c0d6c	0.042004988
10	0xbdfea1e0	-0.12433219
11	0xbdffdfac	-0.12493834
12	0xbd0ef600	-0.034902573
13	0x3d05074c	0.032477662
14	0x3e0dc250	0.13843656
15	0xbc9f8278	-0.019471392
16	0x3dd1e85c	0.10249397
17	0xbdb439f9	-0.0880012
18	0xbcd48ac8	-0.025945082
19	0xbc9ebed0	-0.019378096
20	0xbdc84b7f	-0.09780025
21	0x3a2af400	0.0006521344
22	0x3d078258	0.03308329
23	0x3d9c08dc	0.07618877
24	0xbdc61442	-0.096718326
25	0xbd1a2934	-0.03763695
26	0x3b9a85c0	0.0047156513
27	0x3d16532c	0.036700413
28	0x3d33c985	0.043893356
29	0xbdbe2a40	-0.09285402
30	0x3d9b69b2	0.07588519
31	0xbdb8dbf8	-0.09026331
32	0xbc9aef44	-0.018912919
33	0x3d7f24a8	0.062290817
34	0xbbc945db	-0.0061423606
35	0xbd0f4493	-0.034977507
36	0xbdfc8db2	-0.12331714
37	0x3db05194	0.0860931
38	0xbb37f100	-0.0028067231
39	0x3d6dcd14	0.058056906
40	0x3c0c7093	0.008571762
41	0xbdbe6186	-0.09295945
42	0xbd860a46	-0.06544928
43	0x3db68940	0.08912897
44	0xbd8ba49b	-0.068185054
45	0xbd0ea15c	-0.034821853
46	0x3d5e94a5	0.054340977
47	0xbd863625	-0.06553296
48	0x3d32cdc4	0.043653265
49	0xbd78e828	-0.060768276
50	0x3cd0846a	0.025453765
51	0x3d1f21bc	0.03885053
52	0xbdcb33b6	-0.099219725
53	0xbd933563	-0.07187917
54	0x3cea5085	0.028602848
55	0xbc907dd9	-0.017638134
56	0x3dbaf2ad	0.09128318
57	0x3d07be76	0.033140622
58	0xbc9f4470	-0.019441813
59	0xbcb23048	-0.021751538
60	0xbd725350	-0.059161484
61	0x3db0fea9	0.086423226
62	0x3dcb0f92	0.09915079
63	0xbc8d0ac7	-0.017217053

action_heads.0.weight f4 [10, 64]
0	0xbd95951d	-0.07303832
1	0x3db807ec	0.08985886
2	0x3dd04eee	0.10171305
3	0x3dd6a85d	0.104813315
4	0xbb1444c0	-0.0022623986
5	0x3d144cfd	0.036206234
6	0x3ccc3e15	0.024931947
7	0xbd2b04a9	-0.04175249
8	0xbdfd7c2e	-0.12377201
9	0xbc7a5300	-0.015278578
10	0x3d5d7120	0.054062963
11	0x3d9553f8	0.072914064
12	0x3d51fca3	0.051266324
13	0x3d89d46a	0.06729968
14	0x3dc7ed69	0.09762079
15	0xbcc5f6d0	-0.024165541
16	0x3dd4961e	0.10380195
17	0x3c1b25c4	0.009469453
18	0xbd355394	-0.04426916
19	0xbd46d280	-0.048540592
20	0xbd5accee	-0.053418092
21	0xbdc52bb8	-0.09627479
22	0x3cea9440	0.028635144
23	0x3dec8ea2	0.115506425
24	0x3c9191b8	0.01776968
25	0x3c8a65d0	0.016894251
26	0xbd4012b0	-0.04689282
27	0xbd042f70	-0.032271802
28	0xbca4d522	-0.02012116
29	0x3d3138e4	0.043267146
30	0x3d04a06f	0.032379564
31	0xbce22dda	-0.027609754
32	0x3d370f8c	0.04469256
33	0xbcb2e8d8	-0.021839544
34	0x3c84883c	0.016178243
35	0x3de2bc23	0.110710405
36	0xbd555974	-0.052087262
37	0x3deedce2	0.11663224
38	0xbd8c060a	-0.06837089
39	0x3ded2ce6	0.11580829
40	0x3d5bb8cf	0.053643044
41	0x3d4d9538	0.050191134
42	0xbc89c1d2	-0.016816054
43	0xbd0b87bc	-0.034064993
44	0xbdb2d59c	-0.08732149
45	0xbdced8b0	-0.100999236
46	0x3dc31935	0.09526292
47	0x3e031cef	0.12804006
48	0x3d71d35e	0.059039466
49	0xbd48451c	-0.048894033
50	0x3d0ecf09	0.034865413
51	0x3c7bf270	0.015377626
52	0xbddd49fa	-0.108051255
53	0xbda9e2ef	-0.08295237
54	0x3d5fbb3f	0.05462193
55	0xbc9a2ea6	-0.018821072
56	0xbc392e2d	-0.011302513
57	0xbd54d1c8	-0.051957875
58	0x3d9a0ae5	0.07521609
59	0xbd812f52	-0.06307854
60	0xbd20fe9a	-0.039305307
61	0x3db8f9ab	0.090319954
62	0x3df6199c	0.12016603
63	0x3df3640e	0.11884318
64	0x3d6c09f3	0.057626676
65	0x3b918040	0.0044403374
66	0x3dc0679a	0.093947604
67	0x3e08fce3	0.13377719
68	0x3d65dbc4	0.056117788
69	0x3d2dfa9f	0.04247534
70	0x3d568069	0.052368555
71	0x3c999ce7	0.018751575
72	0x3da8f84a	0.082504824
73	0x3d10d550	0.03535968
74	0xbdd7d822	-0.10539271
75	0xbd9738c8	-0.07383877
76	0xbdb5e734	-0.08881989
77	0xbcca18cd	-0.024670029
78	0x3cf05a38	0.029339895
79	0xbd591294	-0.052996233
80	0xbdb767a9	-0.089553185
81	0xbd876070	-0.06610191
82	0x3d59e718	0.053198904
83	0xbc1043e0	-0.008805245
84	0x3b08540a	0.0020802044
85	0x3ca5c970	0.020237654
86	0xbcd84d68	-0.026404098
87	0xbd8b835c	-0.06812164
88	0xbd6af378	-0.057361096
89	0xbd50b0f4	-0.050950006
90	0xbdef9f78	-0.11700338
91	0xbdc1b19f	-0.09457707
92	0xbcc9d72f	-0.02463874
93	0x3d40222c	0.04690759
94	0x3e0b2452	0.13588074
95	0x3c989a01	0.018628122
96	0x3ddf36d1	0.10899127
97	0x3d294ba4	0.041331902
98	0xbd95d245	-0.07315496
99	0xbd198989	-0.03748468
100	0xbd0c7bb0	-0.034297645
101	0xbdd2ff88	-0.10302645
102	0x3c8f69f0	0.01750657
103	0x3cf33cb0	0.029692024
104	0xbdb8baba	-0.0901999
105	0xbcd78548	-0.02630867
106	0xbdc38476	-0.09546749
107	0x3dfeedd8	0.12447709
108	0x3da0fff0	0.07861316
109	0xbcca06d9	-0.024661468
110	0x3dedf833	0.11619606
111	0xbd911ecc	-0.07085952
112	0x3e06258e	0.13100263
113	0xbd4509f0	-0.04810518
114	0x3d37793d	0.044793356
115	0x3de278b2	0.11058177
116	0x3d6e5fa4	0.05819668
117	0x3d5188b8	0.051155776
118	0xb9741931	-0.00023279038
119	0x3cb70f55	0.022346178
120	0x3e03e816	0.12881503
121	0xbc7a8848	-0.015291281
122	0xbc8b359b	-0.016993335
123	0x3c82db80	0.015973806
124	0xbd75d445	-0.06001689
125	0xbcae7dbe	-0.021300193
126	0x3c200880	0.009767652
127	0x3dd17fe8	0.10229474
128	0x3d45dce6	0.04830637
129	0xbd9e2f28	-0.07723838
130	0x3d9a9444	0.07547811
131	0xbd3db744	-0.046317354
132	0x3d040a54	0.032236412
133	0x3c65631e	0.014000682
134	0x3db68334	0.08911744
135	0xbca92ce2	-0.020651285
136	0xbd50095c	-0.050790176
137	0xbccbfd50	-0.024901062
138	0x3a94e800	0.0011360645
139	0xbd719ed4	-0.05898936
140	0x3daf44b1	0.08558024
141	0xbd82c981	-0.0638609
142	0x3ca06e82	0.019583944
143	0xbdc48cc6	-0.09597163
144	0xbc843fe8	-0.016143754
145	0xbcca3526	-0.024683546
146	0xbd4cd4ac	-0.050007507
147	0x3d85d390	0.06534493
148	0xbde52eee	-0.11190592
149	0x3c56cee0	0.013110846
150	0xbc3f95c0	-0.011693418
151	0xbd852354	-0.06500879
152	0x3dc71518	0.0972082
153	0x3da0b53e	0.07847069
154	0x3d1ab8b4	0.037773803
155	0x3b2e1b38	0.0026566517
156	0x3d8deadc	0.069295615
157	0xbd60e644	-0.0549071
158	0xbdca6a67	-0.09883576
159	0x3df598c9	0.11992032
160	0xbd412485	-0.04715397
161	0x3ccd67b0	0.025073856
162	0xb973187a	-0.00023183404
163	0x3dd66744	0.10468915
164	0x3dfea382	0.124335304
165	0xbdac3c38	-0.08409923
166	0xbaaebd80	-0.0013331622
167	0xbdcf8979	-0.10133643
168	0x3db560a0	0.088563204
169	0x3df46cba	0.119348004
170	0xbd39eb12	-0.045390196
171	0x3cb997a8	0.022655323
172	0xbcbb98db	-0.022900036
173	0xbcf9884b	-0.030460497
174	0x3dd7ca36	0.105366156
175	0xbdda4b47	-0.10658889
176	0xbc91397b	-0.017727604
177	0xba066100	-0.00051261485
178	0xbdd352a2	-0.10318495
179	0x3d501faa	0.050811447
180	0x3daab79a	0.083358005
181	0xbdcb0b2f	-0.099142425
182	0x3d50c33f	0.05096745
183	0xbc064b16	-0.008196613
184	0x3def9dc7	0.117000155
185	0xbdfaa06d	-0.1223763
186	0x3dd89b9b	0.105765544
187	0xbd3e357c	-0.046437725
188	0x3dd8bd64	0.105829984
189	0xbd843d0a	-0.06456955
190	0x3cad70d8	0.021171972
191	0x3d149a40	0.036279917
192	0x3d947162	0.072481886
193	0x3d6ffa98	0.058588594
194	0x3d8f11ec	0.0698584
195	0xbcf3e01d	-0.029769951
196	0xbdca8a16	-0.09889619
197	0xbb84b584	-0.0040499587
198	0x3de2a9ff	0.110675804
199	0x3dd21e05	0.10259632
200	0xbd96a0e4	-0.07354906
201	0x3db01afa	0.08598895
202	0x3d66466c	0.056219503
203	0xbcb94b48	-0.022618905
204	0x3d867098	0.06564444
205	0xbc1e01bd	-0.009643969
206	0x3c45abe1	0.012064905
207	0xbda7bef0	-0.08190715
208	0xbc9604bb	-0.018312803
209	0x3df201b1	0.11816729
210	0x3d9e977a	0.077437356
211	0xbdcee440	-0.10102129
212	0xbc2bb402	-0.010479929
213	0x3da31184	0.07962325
214	0xbd5b1adc	-0.053492412
215	0xbc8042c8	-0.015656844
216	0x3d7f62b8	0.062350005
217	0x3dd727d2	0.10505642
218	0x3de84380	0.113409996
219	0xbdc00b3c	-0.09377143
220	0xbdf81cd5	-0.12114874
221	0x3db4eac2	0.08833839
222	0xbc66dd35	-0.014090826
223	0x3de00d8f	0.10940086
224	0x3daf8596	0.08570401
225	0xbd47e200	-0.048799515
226	0x3d1a9aea	0.037745394
227	0x3d23686b	0.039894503
228	0xbd374144	-0.044739977
229	0x3de601dc	0.112308234
230	0x3c280cc0	0.010256946
231	0xbd27823f	-0.040895697
232	0xbdf50d49	-0.119654246
233	0x3dcce1e8	0.10004026
234	0xbe034d5d	-0.1282248
235	0x3dc2da78	0.09514326
236	0xbd44f5d9	-0.04808602
237	0xbcd6089d	-0.026127154
238	0x3c42d341	0.011891187
239	0x3df097a6	0.11747675
240	0xbdab67bc	-0.08369395
241	0xbdb5cfe0	-0.0887754
242	0x3d8f74c0	0.0700469
243	0xbd82be15	-0.063839115
244	0xbd3c6af0	-0.04600042
245	0x3d8cbbff	0.06871795
246	0xbd661148	-0.056168824
247	0x3d9130ec	0.07089409
248	0xbd55666d	-0.052099634
249	0x3dd0e386	0.10199647
250	0x3df8d3e4	0.1214979
251	0x3c8da330	0.017289728
252	0xbd325b4b	-0.043544095
253	0x3d8dae13	0.06917968
254	0x3d0f1bc0	0.034938574
255	0xbb9825c1	-0.0046431725

action_heads.0.bias f4 [10]
0	0xbdb29965	-0.08720664
1	0x3dfea508	0.12433821
2	0x3dbcd887	0.09220987
3	0x3dd49fdd	0.10382054
4	0xbaf842a0	-0.0018940754
5	0xbc8a6c81	-0.016897442
6	0xbde32fd9	-0.110931106
7	0x3daff89c	0.0859234
8	0x3b51cff0	0.003201481
9	0xbdd7f83c	-0.10545394

action_heads.1.weight f4 [2, 64]
0	0x3defe312	0.11713232
1	0xbc846600	-0.016161919
2	0x3d99f87e	0.07518099
3	0xbca63dda	-0.020293165
4	0xbca117e8	-0.01966472
5	0x3dd3315c	0.10312149
6	0x3dd05141	0.10171748
7	0xbd85c47f	-0.06531619
8	0x3b7ff2c0	0.0039054602
9	0x3dade32a	0.08490594
10	0x3bc4daa0	0.0060075074
11	0xbcb88878	-0.02252601
12	0x3de28b48	0.11061722
13	0x3ddbc702	0.10731317
14	0xbd10b974	-0.035333112
15	0x3dc1d35a	0.0946414
16	0xbc5bf393	-0.013424772
17	0x38bc5884	8.981026e-05
18	0x3dcd5b26	0.10027151
19	0xbc1ee4f0	-0.009698138
20	0xbc6ab260	-0.0143247545
21	0xbcde8300	-0.027162075
22	0xbdd5bd14	-0.104364544
23	0x3dc63874	0.09678736
24	0xbdc8d7ac	-0.09806761
25	0xbdc47e64	-0.095944196
26	0x3c8a9858	0.016918346
27	0xbc80a7d4	-0.015705027
28	0x3b41a348	0.0029546786
29	0x3c212130	0.009834573
30	0x3df6035f	0.12012362
31	0xbdfd1586	-0.12357621
32	0xbd9d1f85	-0.076720275
33	0x3cbce4d8	0.02305834
34	0xbddd7d7d	-0.108149506
35	0xbdcc03dc	-0.099616736
36	0x3dc428ba	0.095780805
37	0x3d464030	0.048401058
38	0xbd1ed0d0	-0.038773358
39	0x3d071d14	0.032986715
40	0x3c813a04	0.015774734
41	0xbc49c500	-0.012315035
42	0x3dccee46	0.100063846
43	0xb80bf000	-3.33637e-05
44	0x3dac0d37	0.08400958
45	0xbdcb4660	-0.09925532
46	0xbd6451be	-0.055742018
47	0x3c790b87	0.015200502
48	0x3d881aa3	0.066457056
49	0xbd505254	-0.050859764
50	0x3dae3b1f	0.0850737
51	0xbdd7577d	-0.10514734
52	0xbd434dac	-0.047681496
53	0x3dbb41e6	0.091434285
54	0xbdc71929	-0.09721596
55	0xbdf501d5	-0.1196324
56	0xbd09f222	-0.03367818
57	0xbdc810e3	-0.09768846
58	0x3d11b3fa	0.03557203
59	0xbcb40980	-0.021977186
60	0xbd19ff04	-0.037596717
61	0x3d8d57f2	0.0690154
62	0x3bee4e60	0.0072725266
63	0xbdf1a46f	-0.11798941
64	0xbde82b50	-0.11336386
65	0x3da0c75a	0.07850523
66	0x3d5cccf4	0.053906396
67	0x3d9073d8	0.070533454
68	0xbdd96bf4	-0.106162935
69	0xbc8de0f1	-0.017319174
70	0x3ddef433	0.10886421
71	0x3ddd10bf	0.1079421
72	0x3dae09dc	0.08497974
73	0x3deda76e	0.116042
74	0xbd207144	-0.03917052
75	0xbdc62ecc	-0.096768945
76	0x3d92157c	0.07133004
77	0x3dab684a	0.08369501
78	0xbd1323c0	-0.035922766
79	0xbc3f3010	-0.011669174
80	0xbba30777	-0.004975255
81	0xbddbab25	-0.107260026
82	0xbd541178	-0.051774472
83	0xbd223d38	-0.039609164
84	0x3d46e1a4	0.04855503
85	0xbd156370	-0.036471784
86	0x3d6713a4	0.056415215
87	0x3de683a0	0.11255574
88	0xbcda4890	-0.026645929
89	0xbcf99910	-0.030468494
90	0xbda0cb14	-0.07851234
91	0xbbe554da	-0.0069986405
92	0xbde64a1e	-0.112446055
93	0x3dad099c	0.084490985
94	0x3de48b17	0.11159342
95	0x3d119b71	0.03554863
96	0x3df55243	0.11978581
97	0x3d80f2da	0.0629632
98	0x3da34911	0.07972921
99	0x3dee3784	0.116316825
100	0xbdb00234	-0.0859417
101	0xbc20acc0	-0.009806812
102	0x3d4059d8	0.04696068
103	0xbd090be4	-0.033458605
104	0xbda920d7	-0.08258217
105	0xbd20c3c0	-0.03924918
106	0xbd6e8002	-0.058227547
107	0xbd33935c	-0.043841705
108	0xbdb97437	-0.09055369
109	0xbd126e00	-0.035749435
110	0x3d9cd430	0.07657659
111	0xbd486208	-0.048921615
112	0x3d5b61ff	0.053560253
113	0xbdd2873e	-0.10279702
114	0xbd96dc6f	-0.07366263
115	0x3c6bf2e1	0.014401169
116	0x3ded12d6	0.11575858
117	0xbde7384e	-0.11290036
118	0x3d6e7ef3	0.058226537
119	0x3cc6c009	0.024261491
120	0xbdccd27f	-0.100010864
121	0xbdc71709	-0.097211905
122	0x3d84480a	0.06459053
123	0xbd7fd4a4	-0.06245865
124	0x3db50b8e	0.088400945
125	0xbdb0ce0e	-0.08633052
126	0x3dc16466	0.094429776
127	0xbd6f8407	-0.05847552

action_heads.1.bias f4 [2]
0	0x3d430a25	0.047617096
1	0x3d258eb7	0.040419307

value_head.weight f4 [1, 64]
0	0xbdb48a57	-0.08815449
1	0xbd8641b8	-0.065555036
2	0xbcf80c18	-0.030279204
3	0x3ce6d2f8	0.02817677
4	0x3d7cdc9c	0.061733827
5	0xbd3906f2	-0.04517264
6	0x3d36f09d	0.04466306
7	0xbd7a1850	-0.061058342
8	0xbd735f24	-0.059416905
9	0x3da70f2c	0.08157191
10	0xbd0c3a64	-0.034235373
11	0xbde050ec	-0.109529346
12	0x3d0b0ad1	0.033945862
13	0xbb1ceb4f	-0.0023943966
14	0x3d80116f	0.06253325
15	0xbd829748	-0.06376511
16	0x3d10dd16	0.035367094
17	0xbd33d36a	-0.043902792
18	0xbd9ab78a	-0.075545385
19	0x3cea1448	0.028574124
20	0x3d872772	0.065993205
21	0x3cbd70d8	0.023125097
22	0x3dec7860	0.11546397
23	0x3c3dda30	0.0115876645
24	0x3c2e27c0	0.010629594
25	0xbc85dfa0	-0.016341984
26	0xbdf78042	-0.1208501
27	0x3d9691d0	0.0735203
28	0x3dfebf8c	0.124388784
29	0x3c4af190	0.012386695
30	0xbda59244	-0.080845386
31	0x3e0dac99	0.13835372
32	0x3d63e6e8	0.05564013
33	0x3db92aa2	0.09041335
34	0x3dada4e0	0.08478713
35	0x3d46cc9f	0.048534986
36	0xbd16da08	-0.036829025
37	0x3cd23ab8	0.025662765
38	0x3d24bdf8	0.04022023
39	0xbba9b51f	-0.005179062
40	0xbd927bf9	-0.07152552
41	0xbd8689d6	-0.06569259
42	0xbdc77310	-0.09738743
43	0xbd483f88	-0.048888713
44	0xbc7babc8	-0.01536078
45	0x3e03cc24	0.12870842
46	0xbd673bc9	-0.0564535
47	0xbdea5588	-0.11442095
48	0x3dc8ec31	0.09810675
49	0x3ddcb97a	0.10777564
50	0xbdb3ebee	-0.087852344
51	0x3cdd36fe	0.027003761
52	0x3d22c794	0.039741114
53	0x3dd7fe96	0.10546605
54	0xbbbc818c	-0.005752748
55	0x3da9073a	0.082533315
56	0x3dfa097f	0.122088425
57	0x3dd70bce	0.105002984
58	0x3db53b63	0.08849218
59	0x3d9baf56	0.07601802
60	0xbde11f7f	-0.109923355
61	0x3d66321b	0.056200128
62	0x3dc56b7a	0.0963964
63	0xbdb6ca1c	-0.08925268
