models/bucket_brigade_policy.pt (torch, 96229 bytes, 9 tensors)

shared.0.weight f4 [128, 36]
00000000: 337b 023e 9aa7 0d3e 16ee 1fbd bec6 1c3e
00000010: 2093 15bd 7bc1 093d 0b2e a6bd 8b75 c83d
00000020: 3373 163e 6869 fabd c357 143e eb88 ff3c
00000030: 1b2e fc3d 6be8 b83c 3e96 a43d d6c5 c0bc
00000040: 8490 033e f6ce c93c 1859 9fbd b602 2e3d
00000050: c843 9dbd d61d a0bc a8a2 8abd 3e6e e23d
00000060: 1cb8 06be b35b 9dbd 90c4 40bd fe3b cdbd
00000070: 4bdd 803c 5c90 28be 7021 1a3e d6f9 10be
00000080: 64c2 033e b637 e33c 3baa 5dbd 4bed d23d
00000090: fd8f 4f3d b77d 213e 9fd6 363d 807d d7bc
000000a0: b963 863d 6fe7 e3bc 3cc3 b83d 5247 2c3e
000000b0: 4d7f fb3d ba8e 21bd d2fb ed3d 6ede 2b3d
000000c0: 05f9 c63d 2565 a9bd 42e5 1bbe 110d 48bd
000000d0: 9754 eebd af47 1c3e 2fd3 783d 3254 b63d
000000e0: 7ecd 8b3d 8e62 173c 234e 113e e9e3 d8bd
000000f0: b5e5 d73c 0d53 c2bd 0b99 8b3d 0265 26bd
00000100: 5cf2 8a3d 6d07 93bc bbb9 1e3e ddf6 a7bd
00000110: ce36 a9bd a058 a9bd e1ae 2a3e 171b 943d
00000120: 6039 243e dfd8 0cbe bb47 29be ff85 05be
00000130: 789c e5bd f340 8a3d 4b72 743d a4cf 0d3e
00000140: f045 b0bd e3b0 e8bd a01a b53d eef7 89bd
00000150: d029 cf3d 4bff 21bd 2342 c33d 409a 04be
00000160: f840 acbd 0621 503d 2652 103d 460d 2ebd
00000170: 5875 cb3d a30a e83d 9e86 f7bd 1e3a b6bd
00000180: e245 1c3e 9b5a 66bd 3b04 72bd db22 25be
00000190: b078 c3bd 5b88 2a3d f636 b4bc e3c4 f7bd
000001a0: d61a 803b 9328 e9bd 04cb 10be a3f5 bbbd
000001b0: 9a5e 15be 0657 d9bd 9499 2a3e 4bf0 003d
000001c0: d05e 523d 9a2d 1fbe c62d e0bd c63a 63bd
000001d0: ab7f d53c 5a2c 16be 4312 93bd 7658 ccbd
000001e0: 0028 f239 c005 7ebd 4039 3dbc 304c e7bd
000001f0: 204a eabd 6e22 c7bd d0ac 69bd 36b4 06be
00000200: 4f19 0f3e 1b7c 07bd 4fd7 123e ebb4 543d
00000210: 2085 10be f636 ec3d 0bd5 3bbd 8bd7 82bd
00000220: 56aa 0dbe 8bab 29be 7651 433d d61f 15bd
00000230: 93e3 843d 560f 0cbe 736a fd3d 988e fabd
00000240: b2bc 3539 f821 7e3d bdca ed3d 683e 273e
00000250: b12d 363e 901d dfbd f1ba 873d 8a15 47bd
00000260: c36c 3d3c 401e babd 22ad 303e 52a0 e1bd
00000270: 3f6c d23d 53e5 9e3d 22bd 893d 4033 88bd
00000280: 428e 283e 4a05 683d a375 0d3d 802d 01be
00000290: d1a0 bf3d 1f7e 52bc 6a84 81bd 8b97 203e
000002a0: 4034 6a3d f8e9 95bd d34e 88bd 3043 213c
000002b0: d00c e33d d009 cbbc 384c 9ebd c7de 20bd
000002c0: 068a dabd 6616 9e3d 8a55 163e 0371 0ebe
000002d0: 135d 0f3d a5ae a83d 2557 d83c 81f8 80bd
000002e0: b69b aa3d dad1 ab3d 3702 703d a7b1 06bd
000002f0: 4baa 43bd 094a 683c 6b1b 08bd 546c 5abd
00000300: 8180 d23d 32e1 0e3e 7668 a5bc a5df 27bd
00000310: 888c a2ba 409c 5fbc bcff 143d 7fcb 2f3d
00000320: 0fc4 1ebe 6f75 85bd 8ef6 0b3e 3a93 7a3d
00000330: 4062 44bc c55f d5bd 9266 d8bd efa9 1cbe
00000340: d6ab 6dbd 5064 573d b011 d23d ac05 963d
00000350: 8fa5 1abe 5cce d4bd 6cc4 f5bc b84e 213e
00000360: 7681 c53c 6bca 30bd fe36 8d3d f001 82bd
00000370: 10ee dcbd 8622 f93d 7334 9bbd 1bda 08bd
00000380: aac7 29be c371 e43d 904d 013e f0cb 783d
00000390: c000 eebd 1070 28be a49c 0abe 4888 fe3d
000003a0: 48e0 a33d e49d 0f3e 73d0 b23d 10c7 2c3d
000003b0: abec d5ba 04cb 01be f338 12be 02a2 1fbe
000003c0: 98ba 8b3d 7095 a7bd 7063 09bd 6b70 c4bd
000003d0: c0cb f8bc 083e f0bd 5608 dfbd ab72 623d
000003e0: d6e2 4abd 46b8 d23d 6601 5bbd 1664 fabd
000003f0: e0e5 f0bc e075 a5bd 2bdb 50bd 5379 22be
0.1274231 0.13833466 -0.039045416 0.15310189 -0.036517262 0.033631783 -0.08114251 0.097880445
0.14692383 -0.12227136 0.14486603 0.031193217 0.123134814 0.022571763 0.08036469 -0.023531836
0.12848097 0.02463482 -0.07780665 0.042483054 -0.07678944 -0.019545477 -0.067693055 0.11056183
-0.1315617 -0.07683506 -0.047062457 -0.10021208 0.01573052 -0.16461319 0.15051818 -0.14157805
0.12867123 0.027736526 -0.054117423 0.10299166 0.050674427 0.15770613 0.044638272 -0.02630496
0.06561989 -0.027820317 0.09021613 0.16824082 0.1228014 -0.039442755 0.116202965 0.041960172
0.097154655 -0.08271245 -0.15224174 -0.048840586 -0.11637228 0.1526172 0.060748275 0.08902778
0.06826304 0.009239806 0.14189963 -0.105903454 0.02635465 -0.09488497 0.068163 -0.040623672
0.06784508 -0.017947877 0.15500538 -0.08201382 -0.08262406 -0.08268857 0.16668274 0.072317295
0.16037512 -0.13754605 -0.16531269 -0.13039397 -0.11211485 0.06750669 0.05967931 0.1384874
-0.086070895 -0.113618635 0.08842969 -0.06736742 0.10115397 -0.039550107 0.09534099 -0.12949467
-0.08410829 0.050812744 0.035234593 -0.042493127 0.09934491 0.11330154 -0.12086223 -0.08897804
0.15261033 -0.05623875 -0.059086066 -0.16126578 -0.09544504 0.041633945 -0.021998864 -0.120981
0.003909449 -0.11384692 -0.14139944 -0.09177711 -0.14586869 -0.106123015 0.16660148 0.03147916
0.05135995 -0.1554474 -0.109462306 -0.055475973 0.026061853 -0.14665356 -0.071812175 -0.0997781
0.0004618764 -0.062017202 -0.011549294 -0.112938285 -0.114399195 -0.09723364 -0.057049572 -0.13154683
0.13974498 -0.03307734 0.14339946 0.05193035 -0.14113283 0.115339205 -0.04585747 -0.06388768
-0.13834509 -0.16569345 0.04768511 -0.036407314 0.06488719 -0.13677725 0.12373819 -0.12234229
0.000173318 0.062044114 0.11610935 0.163324 0.17790867 -0.108943105 0.06627453 -0.048604526
0.011561575 -0.09087801 0.17253545 -0.11016907 0.102745526 0.07758584 0.06725527 -0.066504
0.16460517 0.05664567 0.034536015 -0.12615013 0.09356845 -0.012847452 -0.06324084 0.15682809
0.057178736 -0.073200166 -0.066556595 0.009842679 0.11086428 -0.024784952 -0.07729381 -0.039274957
-0.10670857 0.07719116 0.14681068 -0.13910298 0.035000872 0.08236436 0.026408741 -0.06297398
0.08330481 0.083896354 0.058595862 -0.032884266 -0.047769826 0.014177808 -0.033229273 -0.053325966
0.102784164 0.13953093 -0.020191412 -0.04098477 -0.0012401501 -0.013648093 0.0363767 0.04291868
-0.15504478 -0.06516539 0.13668272 0.061175562 -0.011986315 -0.10418657 -0.10566439 -0.152992
-0.058025204 0.0525859 0.1025728 0.073253006 -0.15102218 -0.103909224 -0.030000888 0.15752685
0.024109583 -0.04316179 0.068952546 -0.06348026 -0.10787594 0.12164788 -0.07578363 -0.033411127
-0.16580072 0.11154511 0.12627244 0.060741365 -0.11621237 -0.16448998 -0.13536316 0.12428337
0.08001763 0.14025074 0.08731165 0.04218203 -0.0016321143 -0.126751 -0.14279537 -0.15589145
0.06822699 -0.081828 -0.033542097 -0.095917545 -0.030370593 -0.117305815 -0.10890262 0.055285137
-0.049532734 0.102890536 -0.05346813 -0.12226121 -0.029406488 -0.080791235 -0.050990265 -0.15866594

shared.0.bias f4 [128]
00000000: c01f 1e3c e162 dfbd d67a 393d 378e 12be
00000010: 75f3 4dbd c7f5 e53d 3618 203e ab7e 55bc
00000020: a64b d0bd 9318 15be e7d9 b3bc 12bb 8abd
00000030: 0d24 153e 7c7b 01be f5a3 f03d 76cb 013d
00000040: 6ba2 4fbd 541e 0b3e c6f2 bd3d 2b03 bfbb
00000050: 7ccf c6bd 20ed 48bd d3cb 903d 2f5b 243e
00000060: 22f6 73bd 36da 8dbd 46c0 16be 7ba1 f93d
00000070: 3a93 263e 049a d63d a6aa aabd 1386 f43d
00000080: 17e1 0cbd d65e d23d 3695 c73d a02b 09be
00000090: 3bf0 283d a044 883d 0e20 afbd d6f3 1e3e
000000a0: beb3 163e 22a3 0e3e 40c6 d83b 63a0 b6bd
000000b0: 1388 babd 6b49 713d 516c 2dbd d67a 0b3e
000000c0: d517 1d3e 0567 e33b 8975 f2bd 403a ac3d
000000d0: 90ba 183e 87f6 e6bc 1ba3 b2bd abb1 1fbd
000000e0: c855 813c ce41 fdbd 90d6 d13d d8e6 913d
000000f0: a880 82bd f0e3 7cbd b3f5 a1bd 8856 183e
00000100: 5071 ca3d 73b3 803d 80f2 f4bb dedd 023d
00000110: 050f 373e f1d1 2d3d 8295 84bd be09 843d
00000120: 7874 87bd 56ed c1bb 56d8 dbbd 0ac2 493c
00000130: c074 0e3c 68f4 afbd 29d0 f53d 9926 293e
00000140: 1670 0abe 1642 863d a69d debd 5611 aebc
00000150: a724 903d c66f b93b 8526 4a3d e270 34bd
00000160: 499f 253e 3923 99bd c225 433d e025 8c3c
00000170: f879 f93d 429c 313c e3cb cd3d 2be4 2f3d
00000180: 94ed ff3d 84a2 953c 3bcb 633d 551b 223e
00000190: f068 5ebd f3e5 8abd ae26 0d3e da7d a53d
000001a0: bb52 16be 2380 9b3d 4c03 18be 0dcd b0bd
000001b0: 2894 853d 4ece b33d 8624 1abd ac76 103e
000001c0: c7c5 393e 76e5 023e 5916 28be c64f 78bd
000001d0: 5fee 0a3c ead1 023e 95c6 2abd d877 473d
000001e0: c1e7 d43d db95 b2bd beb5 cebd 4717 383e
000001f0: 56b9 73bb b1c9 f03d c0b4 15be 5b49 82bd
0.0096511245 -0.109075315 0.04528316 -0.14312063 -0.050281007 0.11228519 0.15634236 -0.013030688
-0.10170679 -0.14560156 -0.02195449 -0.06773962 0.14564534 -0.12644762 0.11750022 0.031688176
-0.050692003 0.13585788 0.09274821 -0.005829235 -0.09707543 -0.049054265 0.070701264 0.16050409
-0.059560902 -0.06926386 -0.14721784 0.12189003 0.162671 0.10478595 -0.0833333 0.11939635
-0.03439435 0.10271995 0.097452566 -0.13395548 0.041244727 0.06653714 -0.08551036 0.15522704
0.14717004 0.13929418 0.00661543 -0.0891731 -0.09107985 0.058907907 -0.042339627 0.13621077
0.15341122 0.006939771 -0.11838824 0.08409548 0.14914918 -0.028193725 -0.08722516 -0.038987797
0.015787974 -0.12366067 0.10246003 0.07124108 -0.063721955 -0.061740816 -0.079081915 0.14876759
0.09884894 0.06284227 -0.0074751973 0.03194987 0.17876823 0.042436544 -0.06473829 0.06447171
-0.066140115 -0.005918185 -0.10734622 0.012314329 0.008694828 -0.08591539 0.12002594 0.1651863
-0.1351932 0.06555574 -0.10869913 -0.0212485 0.07038241 0.0056590764 0.04935314 -0.044052966
0.16174044 -0.07477421 0.04764343 0.017107904 0.12181467 0.010840477 0.10048654 0.042942207
0.12496486 0.01826597 0.055613738 0.15830739 -0.054299295 -0.067821406 0.13784286 0.08080645
-0.14679997 0.075927995 -0.14845008 -0.0863286 0.06522399 0.08779584 -0.037632488 0.1410777
0.18141852 0.12782845 -0.16414775 -0.060622953 0.008479684 0.12775388 -0.04169329 0.048698276
0.10395766 -0.08719989 -0.10093258 0.1797763 -0.0037189326 0.117572196 -0.14619732 -0.06361648

shared.2.weight f4 [128, 128]
00000000: a609 7e3d ae33 0cbc 2fe3 f33c bea4 97bd
00000010: e230 b03d 84b2 34bd 3e73 92bb 4f22 6dbd
00000020: 80a0 20bd 802f 9bbd ac71 9ebd 09ed 93bc
00000030: 01b1 1fbd fdb7 853d 4535 e0b9 8fc2 8c3d
00000040: fd8c 72bc da9d 993c f8d9 ad3d a312 8cbd
00000050: 49d6 1cbd f4c0 9a3d cd01 a6bc 0e01 c3bc
00000060: a070 e83b 8c5b 42bd e54b d03b 4a79 16bd
00000070: b9b4 e53c 32b4 99bc 66f9 f2bc dc61 08bd
00000080: 131f bc3c 79af 353d c07e a5bd 1e7f 7cbd
00000090: 3aba adbd 8eff 283d 9bc2 873d 74ec adbd
000000a0: 453b bc3c 84d8 923c 1f48 42bd 3570 9c3c
000000b0: 7094 8b3d 6b8e b13d 018e 1c3d d092 8fbc
000000c0: 36fe 4dbd b4e2 09bd 110b 3e3a b2b1 d4bb
000000d0: 2616 843d c096 a3bd c541 013c b84a e6bc
000000e0: 1887 f13b 6213 ae3d b575 293b 3c2a 7bbc
000000f0: 8c6a f5bc 65a5 b4bd 6001 a4bd 3ebf 1d3d
00000100: c715 5dbd dc8b 4d3d ed48 cdbc 3f9d 023d
00000110: ae24 843d b4d8 533c 549e f83c 9bf9 983d
00000120: cf87 e3bc 1120 853d ef3d 98bd 39c2 a53d
00000130: f881 edbc 8705 5abb 6b19 4b3d 1da3 d43b
00000140: 2b49 9e3d 4e1f 1fbd 848b 47bd bd98 a13d
00000150: 0386 5abd 4526 793d c357 ae3d 4c13 753d
00000160: a2e0 08bd ae41 abba 7c22 a3bd aa22 45bd
00000170: 55de 95bc b832 6fbd 67dd 503d 94b4 3d3d
00000180: 4134 cfbc 17c0 63bc 8adb ae3d 7765 b2bb
00000190: 55c0 993d 36ae a73d 51fd fdbc 70e3 acbd
000001a0: 4fd9 a83d ada6 42bd a71a ad3d d01f 67bd
000001b0: f753 833c 5816 d63c 920a abbc 5529 8d3d
000001c0: 2020 a4bd d370 16bd 58f5 63bc c5a3 8a3d
000001d0: 94ad 273d fce1 683d 01d6 1b3d 62d0 a23d
000001e0: 6153 b4bc fc87 dfbc e3db 46bc e56b 0e3d
000001f0: 0f56 d4bc 4ff8 043d 1185 c63c d340 aa3c
00000200: e17b 933d 1854 ec3b 283e 703d bddf c9bc
00000210: c30b b2bd a45b 4e3d 2e26 163d da11 983d
00000220: 425d dd3c 912f 9abb afad 90bd 8276 babd
00000230: e463 533c e29c 843d 1b36 65bc 4d38 ecbc
00000240: ef1e 353d 7347 2fbd 1b80 ff3c c1e4 92bd
00000250: 15b8 aebd 7736 53bd 06ed b5bc 7bcd be3c
00000260: 2ea9 453d f826 65bd 7137 c4bc 9ed2 b83c
00000270: 92ae 9fbc de06 9cbb f2af 4c3d 66e2 d0bc
00000280: 9fbe 1e3d e77b 853d a461 f13c 4f81 bcbc
00000290: 703c 65bd da49 6fbd ecf8 c6bc be39 ac3c
000002a0: 5ca1 2a3d 06b8 8bbb b73f 833d be64 0fbd
000002b0: e563 903c 6c5a 39bd 4ea7 893c c968 8b3d
000002c0: 4512 c43c 8542 043c 793b 1ebd 0861 a4bd
000002d0: 20bf 77bd b7f7 9dbd 9aa8 803d a408 17bd
000002e0: 2dd4 a7bc 6d36 a2bd c33a 03bd fef7 993d
000002f0: 2a1f 853c 344b 81bc 9eb2 3c3d ee05 823d
00000300: fedc 8c3d 4ed2 94bd 2ef2 cf3b 22f1 9fbd
00000310: 54c5 8bbd 7802 7b3d b938 90bd c78c 31bd
00000320: 7e9f 2d3d 8220 b03d 58d8 afbd 55ed 83bd
00000330: adf7 0dbd 7d1b 7e3d e544 5d3d 42a2 433d
00000340: d2b3 4b3d fc21 f2bc 6efb 6f3d f211 1bbc
00000350: be4b 873a 9e4f fdbc 8ccf 003d 6074 063d
00000360: 9d10 88bc 0f5d 903d 7bc1 f8bc 6045 b73c
00000370: 5fda 993d 4ce1 2f3d 52d5 03bd 26ff 23bd
00000380: 1f20 203c b2f4 fbbb cdd6 cb3b b3a7 583d
00000390: da19 fd3c 120c 4bbd 73ea a0bd 9bfa 9b3d
000003a0: d865 8bbc bd1d 2cbd 4d4b 93bd f036 ac3d
000003b0: cfaf 363d 5a82 65bd 2257 9cbd 6241 9d3d
000003c0: 82a2 fb3c 7bc9 87bc 89ae a4bd 126f 5b3d
000003d0: 99d3 79bd 6397 143d b9c7 babd a1c3 adbd
000003e0: 2777 babd 0b1a a43d d27f a43d f5bc 92bd
000003f0: 25ef 8b3d 0e26 58bd 7177 b7bd 243c 2e3d
0.06202092 -0.008557243 0.029771416 -0.07404469 0.08603074 -0.04411556 -0.0044693043 -0.057894047
-0.039215565 -0.07577419 -0.07736525 -0.018057363 -0.038987163 0.065292336 -0.00042764298 0.068730466
-0.014804122 0.018752027 0.0848884 -0.06839492 -0.038290296 0.07556334 -0.02026453 -0.023804214
0.007093504 -0.047450587 0.0063567036 -0.036736764 0.028040277 -0.018762682 -0.029659938 -0.03329645
0.022964036 0.044356797 -0.08080816 -0.061644666 -0.084827855 0.04125934 0.06628915 -0.084923655
0.02297748 0.017925508 -0.04743206 0.019096473 0.068154216 0.08669742 0.038221363 -0.01752606
-0.050291263 -0.033663467 0.0007249574 -0.0064909095 0.06449537 -0.07987738 0.007889216 -0.0281118
0.0073708408 0.08499791 0.0025857512 -0.015329894 -0.029958032 -0.08820609 -0.08008075 0.03851246
-0.053975847 0.05018221 -0.025059188 0.031888243 0.064523086 0.012930084 0.030348934 0.074694835
-0.02777472 0.06500257 -0.07433688 0.08093686 -0.028992638 -0.0033267455 0.049584787 0.006489171
0.077287994 -0.038848214 -0.048717037 0.07890461 -0.05335046 0.060827512 0.08512833 0.059832856
-0.03341735 -0.0013065839 -0.07965562 -0.04812876 -0.018294493 -0.05839798 0.050992396 0.04631479
-0.025293471 -0.013900778 0.085379675 -0.0054442245 0.075073875 0.08187525 -0.03100458 -0.08441818
0.08244573 -0.047522236 0.08452349 -0.056426823 0.016031248 0.026133701 -0.020879064 0.06892649
-0.0801394 -0.03672869 -0.013913475 0.06769518 0.04093702 0.05685614 0.038045887 0.07949902
-0.022012414 -0.027286522 -0.012137386 0.034770865 -0.025919942 0.032463368 0.024233373 0.020782864
0.072013624 0.007212173 0.058653027 -0.02464282 -0.086936496 0.050380364 0.036657505 0.0742528
0.027022008 -0.0047053774 -0.070643775 -0.09104635 0.012902234 0.064752355 -0.0139899505 -0.02883544
0.044218954 -0.04279275 0.031189015 -0.071725376 -0.085312046 -0.051565614 -0.022207748 0.02329134
0.048257045 -0.055945367 -0.023952218 0.022561368 -0.019492421 -0.004761561 0.049972482 -0.02549858
0.03875601 0.06517773 0.029465504 -0.023010878 -0.05596584 -0.05842004 -0.024288617 0.021023627
0.04165779 -0.0042638807 0.06408637 -0.035008185 0.017625758 -0.04525225 0.01680341 0.068070956
0.023934493 0.0080725 -0.038630936 -0.0802632 -0.060485005 -0.077132635 0.06282158 -0.036873475
-0.020486915 -0.07920537 -0.03203846 0.07518004 0.016250212 -0.01578293 0.04606878 0.06348787
0.068780884 -0.07266675 0.0063460087 -0.07809664 -0.06824747 0.06128165 -0.07042069 -0.043347146
0.04238843 0.085999504 -0.08586186 -0.06441752 -0.03466003 0.062037934 0.05402078 0.047762163
0.049732037 -0.02955722 0.05858939 -0.009464728 0.0010322256 -0.030921753 0.031447932 0.032825828
-0.016609484 0.070489995 -0.030365696 0.022371948 0.07512354 0.04293947 -0.03218586 -0.04003825
0.009773283 -0.007689082 0.0062206746 0.052894305 0.030896116 -0.049572058 -0.07857218 0.076161586
-0.017016336 -0.042020548 -0.07192097 0.08408916 0.044601258 -0.056032516 -0.07633807 0.076784864
0.030717138 -0.016575566 -0.080411024 0.05357272 -0.06099281 0.036277186 -0.09120125 -0.08484579
-0.09104758 0.0801278 0.08032192 -0.07164947 0.068327226 -0.052770667 -0.089583285 0.042537823

shared.2.bias f4 [128]
00000000: 4e5c 6dbd 459f 4abd df0e 2cbd 2b2b 6f3d
00000010: d741 1fbd f6b5 ab3d 0b24 9cbd 912a 9cbc
00000020: f67d 953d 16f0 17bd 42b9 cf3a 7bc0 d4bc
00000030: d9eb ac3c 1dab 36bd f2f9 4dbd d868 89bc
00000040: 3b71 503d 6ba5 cbbb b0d1 8abd 2569 ccbc
00000050: 9097 2cbd f4e9 b03d 4684 52bc 18a8 203d
00000060: 5116 ae3d b478 7dbd 6b0a 0b3d 9f9c b63c
00000070: 9464 993d 820c 80bb 0561 d43c e934 b1bd
00000080: 722a c83d 4d18 7abd ab2c 863d c4e3 79bd
00000090: 694d 9b3c 6b5e 04bc 1831 873d c11c 87bd
000000a0: 3f91 973d fd99 c73d 8b31 d23c 4149 a73d
000000b0: c03c 923d 05b1 aa3c cbae 253d 7311 c73b
000000c0: 9576 1a3d 8546 7bbd e8f6 c3bc 2e12 45bd
000000d0: d304 6ebd 1ec9 20bd 586f 1abd 3420 5f3c
000000e0: c2af 2dbb 89fe 1d3d d877 1e3d 2557 cbbc
000000f0: 39ac 773d 5800 84bd cd8f 69bd d23c af3d
00000100: 296f 733d 460d 213d be5e aabd 8926 833d
00000110: 46ef 99bd 4507 5b3c 7a53 36bd 3e04 343d
00000120: b461 06bd 60c1 98bd 8e6c b0bd 977a 59bd
00000130: ad71 07bd c4e5 3d3b 07a9 ffbc 69d2 54bc
00000140: 54f0 5f3c e8ad 983d 6061 3bbc f774 923d
00000150: 39af 36bd d543 903d 1828 1ebd 1eb0 4ebd
00000160: 43d2 f7bb 395d 9cbc 98f1 64bd 77f5 763d
00000170: 677d a9bd ccf0 d7bb 485f acbd cd31 62bd
00000180: 70a8 f33c 9d82 5bbc ad22 8ebc ab7c 033c
00000190: e5a4 cdbc 4885 9fbd 9bae 4abc cf7f ca3c
000001a0: bf6e 743d 0144 10bd b16a 77bd 1fee 61bd
000001b0: 5aa3 5a3d 104a a5bd 8fd0 8d3d 9c82 423d
000001c0: 95c1 783d 3da7 03bd f274 5a3d e07f c3bc
000001d0: 260c 32bc 0e95 8a3d a7c4 68bd 6ce2 aebc
000001e0: 4d23 223c 65a6 eb3c b676 a4bc 96ec 88bd
000001f0: e3cd abbc 438e 263d eef3 8cbd f0e3 b2bd
-0.057949357 -0.049468298 -0.04200637 0.058390778 -0.03888115 0.08384316 -0.07624062 -0.019063266
0.07299416 -0.0370942 0.0015848058 -0.025970688 0.021108555 -0.04459678 -0.050287195 -0.016773626
0.050889235 -0.0062147877 -0.06778276 -0.02495248 -0.04213673 0.08638373 -0.012848919 0.039222807
0.0850035 -0.06188269 0.033945482 0.02229148 0.07489887 -0.003907741 0.025925169 -0.0865267
0.09773721 -0.06105833 0.065514885 -0.06100823 0.01895781 -0.008079152 0.06601161 -0.06597281
0.0740075 0.09746168 0.02565839 0.08168269 0.071404934 0.020836363 0.0404499 0.006075078
0.037710745 -0.06134655 -0.023921445 -0.04811304 -0.05811007 -0.0392543 -0.037703842 0.013618518
-0.0026502465 0.03857282 0.03868851 -0.024821827 0.06046698 -0.06445378 -0.057021905 0.085565224
0.059432182 0.0393193 -0.08318852 0.064038344 -0.07516341 0.013368432 -0.044513203 0.04394936
-0.03280802 -0.07458758 -0.08614455 -0.053095426 -0.033067394 0.0028976062 -0.031208528 -0.012989619
0.0136681385 0.07455045 -0.01143679 0.071512155 -0.0446007 0.07044188 -0.038612455 -0.050460927
-0.007562907 -0.01908742 -0.055894464 0.060292687 -0.08275872 -0.0065899845 -0.08416611 -0.055223275
0.029743403 -0.01339784 -0.01735052 0.008025329 -0.025103042 -0.07789093 -0.012370731 0.024719147
0.05967593 -0.035221104 -0.060404483 -0.05515873 0.05337844 -0.08070767 0.06924545 0.04748784
0.06073149 -0.032141913 0.053334184 -0.023864686 -0.010867154 0.06766711 -0.056828167 -0.0213482
0.009896112 0.028765867 -0.020076137 -0.0668575 -0.020972198 0.040663015 -0.068824634 -0.08734882

action_heads.0.weight f4 [10, 128]
00000000: bb18 debc a2fd be3c a98a dabc a7cf 343d
00000010: 4f05 863c dfd8 a73d 66ff ae3b 1416 36bd
00000020: 025b e7bc 944f 8bbd 382a 02bd e3a9 32bd
00000030: 2b8d 86bd 806b abbd 99b2 78bd d4e3 5f3d
00000040: 5e72 a8bc 6254 b63d d3e5 19bd ef91 2d3d
00000050: 78ba 2dbd 457d cc3d 68c3 a83c f27d 3f3c
00000060: 3c17 d93c fe2d ab3c f6e0 0dbd 6378 123d
00000070: 7ea3 53bd cb36 3f3d 8887 ad3d 8cf1 ae3d
00000080: e08f 04bb b663 3ebb e6da 9f3d 06da 5cbd
00000090: 8c1d da3c faea 0a3d 6ff2 a23d 3873 98bc
000000a0: f749 913d b2db a93b c57d af3d 56d3 b4bd
000000b0: 5965 50bd 34ac 40bb e090 a6bd 058d 03bc
000000c0: c846 5cbd 0044 623d 02c5 993d 6fa3 c5bb
000000d0: 9dbf 623d 6095 723d 610e 103d d2a1 353c
000000e0: efab 6cbd c81c 99bd 84fd 103d a73e 75bd
000000f0: a8db 8e3d cacd ab3c 646d 27bd 4265 18bd
00000100: 155e 183d ca2d e6b6 3f7c 9e3d a29e 09bd
00000110: be5c 55bd c56e a5bd af62 873c aca8 50bd
00000120: 8982 db3b 989b cd3d dce2 0fbd 0cf5 bc3d
00000130: d85c 5c3d 85e9 5dbd 5dbf 3f3d d325 9ebc
00000140: ae31 433d c788 53bd 7db2 233d afa0 4b3d
00000150: 4949 8d3d a6a6 06bd 1e12 553d 15d5 8a3d
00000160: 9ec4 d8bb 68f1 903d 38cb 99bc 6736 4ebd
00000170: 6097 0f3d 9045 e93c 2a72 a4bd 1a6c 15bd
00000180: f156 e2bb 752a 6e3d 4bb9 c4bb 4f7c acbd
00000190: 83ba 653c 32fa bf3c 2df3 993c 4032 923d
000001a0: e1c7 b1bd d9b0 c83c 34a6 46bd 46aa bebc
000001b0: e5bf 2bbd a6ab 9abc 63bc a9bd 7efd 88bd
000001c0: 552f 743d dde5 5d3d 3cf2 f0bc e3b5 4cbc
000001d0: caeb 00bd 57e5 b23c 59da f8bc 0452 153d
000001e0: 1b76 68b9 5530 b83c 9f52 25bd 3746 f0bc
000001f0: 0c4d 1b3d 1f21 a63d 9948 44bd 89be 5d3d
00000200: 24b9 d0bb 5dbc ba3d ae19 07bd 4cc7 b53d
00000210: 547f 263d 12e9 a83d 5e7e 3b3c f512 823d
00000220: 0879 263b 166d ae3a 085a 7fbc fd4b cf3c
00000230: 7cdd b83d 50f6 903d 1eaa 0ebd f825 bbbc
00000240: 0001 813d c279 a5bc efb0 e7bc 3e95 b93c
00000250: 70de 22bd 147d 4dbd 9483 913d c2c5 a3bd
00000260: bf79 5abd 1c85 233d 2d28 52bc 2004 6b3d
00000270: 38ae 45bc 2899 833b 83db 8bbc 6ac7 cc3c
00000280: 5fd2 1e3d e9cc 833a 02e2 743d 0107 51bd
00000290: dd62 b5bc 6d9f 9d3c 42d5 333d 8876 8abc
000002a0: 10ed 623b 4b26 8abd 7d6d 2f3d 0642 593d
000002b0: dc56 96bd fcf2 70bd a80a 333c 7d1d 9e3d
000002c0: bd63 423d dec2 893d d44f 94bd 7ea9 813d
000002d0: 1282 af3d e66c 69bd 2b9a a53c c715 8cbc
000002e0: 5ee1 b23d 5726 28bd 0fd1 aabd 04e6 93bd
000002f0: 0f5b 843d ad08 dd3c 6633 a0bd 487c 91bd
00000300: 561e 7a3d 0bbd 2bbd d214 77bd a74c 1abd
00000310: 7437 0dbd 5910 5ebd 9541 1ebd 55a1 cf3c
00000320: 041e 033d 6350 b13d 2118 a4bd 38c0 0ebc
00000330: ad41 d6bc 3af3 45bd 97d2 f33c 204f eabc
00000340: 4371 00bd 6071 8cbd 2455 a1bc 5454 8e3b
00000350: 647d 37bd 0533 8bbc 5b38 55bd f32b ad3c
00000360: 5fc4 393d f051 32bd 9f10 17bd c4f3 54bc
00000370: a22a 2ebd dc2b 0fbd d19f 2f3d b076 73bc
00000380: 38b3 433d b57f 593a 7528 703b 5e9f 7ebd
00000390: 7797 d03b 5fe3 aa3d 0b45 b13d ae3b 7d3d
000003a0: baa1 e3bc f65f 553c ac19 a43d 0e3e b7bb
000003b0: 2f48 0d3d 38b4 1e3c 3802 683d 9b03 f1bc
000003c0: 38d5 8a3c 2a7d a0bd c75c 8ebc e80a 5f3d
000003d0: ce9a 153c a1bf a73d d8e3 6dbd a98b 213d
000003e0: 0912 8ebb 5a33 a93d 6271 a53d 43d7 b83d
000003f0: 9439 6fbd 5be1 cc3d 3cb0 63bd 87d5 07bd
-0.027111402 0.0233143 -0.026677446 0.044143345 0.016359953 0.08195662 0.0053405045 -0.04445465
-0.028241638 -0.06802288 -0.031778544 -0.043619048 -0.065698944 -0.083701134 -0.0607172 0.054660633
-0.020562347 0.089028135 -0.037572693 0.0423755 -0.04241416 0.09984831 0.02060099 0.011687743
0.026500337 0.020895954 -0.034638368 0.03575934 -0.05166959 0.046683114 0.08473116 0.08542165
-0.0020227358 -0.0029051132 0.078054234 -0.05391886 0.026625417 0.033915497 0.07956397 -0.018609628
0.07094186 0.0051836604 0.085689105 -0.08829372 -0.050877903 -0.0029399516 -0.081331015 -0.008029227
-0.05377844 0.05524063 0.075082794 -0.0060314457 0.055358518 0.059224486 0.035169963 0.011085944
-0.057781156 -0.07476193 0.03539802 -0.059874203 0.0697549 0.020972151 -0.040875807 -0.037205942
0.0371991 -6.8598647e-06 0.07738542 -0.03359855 -0.0520904 -0.08077768 0.016526548 -0.050942108
0.0066989106 0.10039443 -0.03512846 0.092264265 0.05379948 -0.05417778 0.046813358 -0.019305145
0.0476548 -0.051644113 0.03996514 0.049713787 0.06898744 -0.032873772 0.05201923 0.067789234
-0.0066152355 0.070772946 -0.01877366 -0.05034485 0.03505647 0.028475553 -0.080295876 -0.036480047
-0.006907337 0.05814596 -0.006003534 -0.084221475 0.014021519 0.023434732 0.018792713 0.07138491
-0.08680702 0.02449839 -0.048498347 -0.023274552 -0.04193105 -0.018880676 -0.08287885 -0.06688975
0.05961545 0.054174293 -0.029412381 -0.012494537 -0.031474866 0.021837873 -0.030377554 0.03645517
-0.00022169242 0.022483984 -0.040361997 -0.029330356 0.037915275 0.08111786 -0.047920797 0.054136787
-0.0063697267 0.09117959 -0.032983474 0.088759035 0.040648773 0.0824758 0.0114437025 0.06351272
0.002540173 0.0013307657 -0.01558543 0.025304789 0.0902662 0.070782304 -0.034830205 -0.022845253
0.06299019 -0.02019966 -0.02828261 0.022654172 -0.039762914 -0.050168112 0.07105175 -0.07996704
-0.053338762 0.039921865 -0.012826961 0.05737698 -0.012065463 0.0040160604 -0.017072445 0.024997432
0.038774844 0.0010055575 0.05978585 -0.05103207 -0.022141868 0.01924106 0.04390455 -0.016902223
0.0034626164 -0.06745585 0.042829026 0.05304148 -0.07340786 -0.058825478 0.010927834 0.07720468
0.0474584 0.06726621 -0.072417885 0.06331156 0.08569731 -0.05698862 0.020215115 -0.017100228
0.08734392 -0.04105219 -0.08340656 -0.072216064 0.064626805 0.026981676 -0.078223035 -0.07103783
0.061064087 -0.041928332 -0.06032259 -0.037670758 -0.034476712 -0.05421481 -0.038636763 0.025345484
0.032011047 0.08657911 -0.08012415 -0.008712821 -0.026154364 -0.048327662 0.029763503 -0.028602183
-0.031358015 -0.06857562 -0.019693919 0.004343549 -0.044797316 -0.016992101 -0.052055698 0.02113912
0.04535329 -0.043535173 -0.036881085 -0.012997571 -0.042521127 -0.034953937 0.042877022 -0.01485984
0.04777834 0.0008296923 0.0036645208 -0.062163703 0.0063657123 0.08344149 0.08655747 0.061824493
-0.027787078 0.013023367 0.08012709 -0.0055921143 0.034492668 0.009686522 0.05664274 -0.029420665
0.016947374 -0.07836373 -0.017378224 0.05445376 0.009131147 0.08190847 -0.058078617 0.03943983
-0.004335646 0.08261748 0.08078267 0.09025433 -0.05840452 0.10003921 -0.055587992 -0.03316262

action_heads.0.bias f4 [10]
00000000: ae68 87bd 6281 96bd 91c3 83bd fed4 25bd
00000010: 6e83 b03c 4527 a73d c3b9 b5bc e134 9c3d
00000020: 60f3 793d 94b5 2f3d
-0.06611763 -0.073488966 -0.06433786 -0.04048633 0.021547046 0.08161787 -0.022183305 0.07627273
0.061023116 0.042897776

action_heads.1.weight f4 [2, 128]
00000000: 132f 183d 2c98 92bc a41f d5bc b27e 0bbd
00000010: 6f9f b1bd 60d5 02bd 9899 53bd 3a76 a1bd
00000020: 3864 8cbd fd58 9d3d f53b 9a3b 780c 903d
00000030: 395c 503d 2217 073d 7859 98bd 7532 15bd
00000040: f81a f23c 29bf 8d3c 1199 95bd 9f59 a63d
00000050: 682f 8b3d 5f8d f43c b81a 5cbd 2520 233d
00000060: 17da 583d 99ca 203d df5a 3abd e6cb 8bbb
00000070: 1abf 8dbd a0eb 4ebd 9e19 53bd 3c2c 933d
00000080: de8e 8ebd 2495 d23c 6ec8 5d3a c1ae 0cbc
00000090: 6f39 bd3c e9bc 8bbd a593 263d b14a 703d
000000a0: 93bc acbd 8d8f 1f3d c849 24bc 5a29 853c
000000b0: d3b8 9bbc 2b7f 8e3c 26b8 3d3d a5bc f8bc
000000c0: 651c a6bd 3f48 89bc 108e 743d a30c a9bd
000000d0: 4bc2 7a3d 87b0 c9bb 6a0f 2abd 5edc 5e3c
000000e0: 4d25 353d da20 aabd 09e7 9abd 7752 b4bd
000000f0: 6aab 4e3d cb87 b9bd b830 513d b61f 583d
00000100: ba8a 653c bfae 9e3d d976 7fbc 9dc0 4bbb
00000110: 9822 163d 18bb 79bd f35f 963d f7bb 2bbd
00000120: fa5e 9dbd a82c d83c 9b1e 27bd 7753 943d
00000130: 9470 58bc b6f1 783d cfa1 bbbc 85b1 6bbd
00000140: 449c a1bc ce8d 51bc f80f f73c 98a0 843c
00000150: 1106 34bd 08fd 8bbd fc7f b2bd 06c2 aa3d
00000160: 64c2 653c 363e 0fbb 27ce 883d 8b95 953c
00000170: 688a 2a3c cdff 6ebd 8708 83bd 20c7 9bbd
00000180: 580c 19bc ef1a 1cbc 6a78 66bd 8c56 693d
00000190: d309 04bc fca0 f73c d1e4 febc cea4 06bd
000001a0: 167c 40bd dee5 c4bc 9c0e c1bc 9559 57bd
000001b0: 19fb 9b3d b24d 883d ab88 a93d 5055 9d3d
000001c0: 3611 05bd 939f 1e3d e62f 1ebd 1a88 a43d
000001d0: c35f dcbc cefa 86bd dab7 41bd df70 0bba
000001e0: ce51 9abd 443b 283c 4f49 60bb 0ad0 a7bd
000001f0: 4282 953d 5ba6 05bd edaf a63d ac7d 19bc
00000200: 5d01 693d 8c20 bb3d 5dd2 6abd b0b7 3f3d
00000210: 0b8d 863d 1bb8 6e3c 36d8 9fbd 8591 bdbc
00000220: 7bc7 c83c cb9e 89bd 7d26 a33d 0b13 53bd
00000230: 9efa 00bd f143 1f3d 317e a2bd 418f 6e3d
00000240: 1058 d33a 93a7 7e3c f68d 9dbd adb1 94bd
00000250: d0d2 79bd 7839 aabd bae1 a63d bdae f1bc
00000260: c409 a03c e13c 0f3c c557 31bd b341 82bd
00000270: 94f7 92bd 7a96 0d3d dcdc 9cbc 59ec 2d3d
00000280: c387 853d 461e ebba 5188 073c 9efe 11bc
00000290: 5aab 89bd 645e 8d3d efc3 8cbd d616 b0bb
000002a0: 397e b23d 7e7c ccbc fe51 a23c c1e2 6f3d
000002b0: 163f 7fbd 2d69 ac3c 3a4c 04bd e0a9 58bd
000002c0: 52af 99bd f259 593d 352c 15bd b82f 9d3d
000002d0: 5992 b63d 18e7 f53b 2718 953d 57b6 adbc
000002e0: 0a9b 4f3d b466 adba b6cd 72bd 3ad2 36bd
000002f0: 38e1 5dbd f9e6 d53c 74dd d43a efde 8e3d
00000300: 270a dc3c 5624 88bc bd0e 39bc 0b96 693d
00000310: 15f8 3fbd 24aa b23d 4829 b8bb 68b6 b03c
00000320: 152b b03d e5f4 96bd a01b 823d c8bd 973d
00000330: 2c03 963d 879a fc3c d702 e1bc d439 64bd
00000340: 8a26 853d 165c ab3c 638b 923d 5414 5d3d
00000350: 2c05 33bd 1f32 713d 97d8 f13b 4287 9ebd
00000360: 8885 473c d477 2fbd e282 04bd 955e fbbc
00000370: f643 a1bd 026c 62bd 4793 943d dbbb 40bd
00000380: 74b8 4cbc a7cf 49bc 4f33 903d e2d0 333d
00000390: 9db5 18bd e3bb 8c3b a68e 13bd 9dd4 f13b
000003a0: 39c8 30bd 068e 40bd f23a c3bc fe7c 7fbd
000003b0: f50d 08bd 2060 0b3d 55bc 7dbc 434b 89bd
000003c0: b36e 75bd bda8 58bd a876 6d3d 06c1 67bd
000003d0: eca4 bfbb d5ae 4c3d d7be 9cbd 87af 853c
000003e0: 9f3e 0b3d e458 a23d 0f37 1b3d dbdf d2bc
000003f0: 60f5 b23d 9da6 a5bb c809 edba c998 f83c
0.03715427 -0.017894827 -0.026016064 -0.034056373 -0.08672988 -0.03194177 -0.05166015 -0.07883878
-0.06855053 0.07682989 0.0047068545 0.07033628 0.0508692 0.032981046 -0.0743894 -0.036425073
0.029553875 0.017303066 -0.07304586 0.081225626 0.067961514 0.029852567 -0.05373642 0.039825577
0.05294236 0.039255712 -0.045496818 -0.00426625 -0.06921215 -0.05051768 -0.051538102 0.071861714
-0.069608435 0.025705881 0.00084603473 -0.008586586 0.023098676 -0.06823141 0.04066815 0.05866498
-0.08434405 0.03895526 -0.010027356 0.01625507 -0.01900903 0.017394623 0.046318196 -0.03036339
-0.081108846 -0.016758082 0.059705794 -0.082543634 0.06122045 -0.006155077 -0.041518606 0.013602344
0.044225026 -0.08307047 -0.07563598 -0.088047914 0.050456442 -0.090591036 0.051071852 0.052764617
0.014010126 0.07748174 -0.0155923 -0.0031090148 0.036654085 -0.060969442 0.073425196 -0.041927304
-0.07684131 0.026388481 -0.040800672 0.07242482 -0.0132104345 0.06077739 -0.022904305 -0.057542343
-0.019727834 -0.0127901565 0.030158982 0.016189858 -0.043951098 -0.06835371 -0.08715817 0.08337788
0.014023397 -0.002185715 0.066799454 0.018259784 0.010408975 -0.05834942 -0.06398111 -0.076063395
-0.009341322 -0.009527906 -0.05626718 0.056967303 -0.008058983 0.03022813 -0.031114968 -0.032872014
-0.046993338 -0.02403539 -0.023566537 -0.052575666 0.076162525 0.06655444 0.082780205 0.07682288
-0.032487117 0.0387264 -0.0386199 0.08033772 -0.026901131 -0.06590806 -0.047294475 -0.00053192483
-0.07535134 0.010268036 -0.0034223383 -0.08193977 0.07300235 -0.032629352 0.08139024 -0.009368341
0.056886066 0.09137067 -0.057329524 0.046806037 0.065698706 0.014570261 -0.07804911 -0.023140678
0.024509182 -0.067197405 0.079663254 -0.051531833 -0.031489007 0.038883153 -0.07934225 0.058242086
0.0016124267 0.0155428825 -0.076930925 -0.072604515 -0.060992062 -0.083117425 0.08148523 -0.029502267
0.019535907 0.008742542 -0.043296594 -0.063601874 -0.07176128 0.034567334 -0.019148283 0.042461727
0.06520035 -0.0017938099 0.008272246 -0.008910803 -0.06722136 0.06902769 -0.06873309 -0.005373816
0.08715481 -0.024961706 0.019814488 0.05856586 -0.062316023 0.021046245 -0.032299258 -0.05289638
-0.07504143 0.053064294 -0.036419112 0.07675117 0.08914632 0.007504355 0.07279997 -0.02120511
0.050684966 -0.001322946 -0.059278212 -0.04463408 -0.054169863 0.026111113 0.0016240315 0.06976115
0.02686031 -0.016618889 -0.011295018 0.057027858 -0.04686745 0.08723858 -0.0056201555 0.021571353
0.08601967 -0.07370929 0.06352925 0.07409245 0.07324824 0.030835403 -0.027467174 -0.05571921
0.06501491 0.020917933 0.07155492 0.053974465 -0.043706104 0.05888569 0.007380556 -0.07740642
0.012177832 -0.042838886 -0.032351382 -0.030684749 -0.07874291 -0.055278786 0.072546534 -0.047054153
-0.012495149 -0.012317575 0.07041036 0.043900378 -0.037282575 0.004294859 -0.036024712 0.007380082
-0.043159697 -0.047010444 -0.023831818 -0.06237506 -0.033216435 0.03402722 -0.015486796 -0.06703808
-0.059920024 -0.052895296 0.057974488 -0.056580566 -0.0058485176 0.04997142 -0.07653587 0.01631905
0.033995267 0.07927111 0.037894305 -0.025741508 0.08738208 -0.0050552622 -0.001808458 0.030346291

action_heads.1.bias f4 [2]
00000000: 5a9e 8fbd c3b5 9e3d
-0.07012625 0.07749512

value_head.weight f4 [1, 128]
00000000: 907b cb3c b6bb 603d 08fa a03c b5cc bebd
00000010: c4cb 1d3d 4411 c9bc fe2c 583d f0b1 f53c
00000020: db3d 5b3c 81ae 173d 0452 6b3d 3adb e33c
00000030: 9e67 8b3d 1e66 ad3d 6423 b5bd 6d14 a6bd
00000040: b6e5 b7bd 03c9 b2bd 8193 3e3d dd00 5b3d
00000050: c873 ef3b 1780 13bd 9620 a2bd c985 aebd
00000060: 8c96 b53c e443 af3c dd76 003d b7ff c0bc
00000070: bb28 b83c 049f 8e3c 23c4 1bbd bfd6 963d
00000080: 076d c3bc e1ff b0bc 4566 69bd 366c 7c3d
00000090: 7c0f 9f3d 947d 813b 5335 67bd 63ad 94bd
000000a0: 68ca b0bd f104 d7bc 8337 303d 815d 48bd
000000b0: 47f7 37bd c639 90bd 4b81 d93b fcda 303d
000000c0: 72e4 b1bd 1afd 39bd e7bc 123d f07f 843d
000000d0: c95a 543d d16f 24bd fce5 0bbc ffb1 4ebd
000000e0: b12a df3c 452e 8f3d 5dbb acbb bb56 74bd
000000f0: 9b6a ac3d e858 073d 1b2d ce3c ffde 9e3d
00000100: b23e 36bd 948f 05bc 4d96 9c3c 1a95 8d3d
00000110: f1d3 1d3d 5c56 38bc 2b29 8c3d 25f6 87bc
00000120: c2ae 6fbd 0064 87bc 84c1 ad3d 4261 c9bd
00000130: 1381 9d3d 0d4b 8bbd d39c 61bd 0b50 c6bd
00000140: ec07 773d 2786 783c cd27 a6bd b17d 08bd
00000150: 37ab 5c3d 7994 ad3d c555 803b bdd4 853c
00000160: 4846 4fbd 5617 153d 0b9d ce3c 5748 9dbd
00000170: e9e2 983d d88d 7d3d e3c2 903d d246 4e3c
00000180: 1380 1bbd 6237 873d e957 81bd 28d4 9cbd
00000190: 5451 bb3b f6ec f13c 7da8 563c 83d9 0d3c
000001a0: 7a1f 7f3c 96b0 f6bc 70ee 57bd 3c04 d0bd
000001b0: c102 16bd c484 1d3d c8e3 23bd 1131 70bd
000001c0: 005d 88bc 3835 973d 133b 413d 06b3 86bd
000001d0: 1b26 c8bb ac6d adbd 8ef1 793c f9d1 25bd
000001e0: 07ab 123d 95db 973c d049 2c3b f1b8 c8ba
000001f0: f410 7e3d 484d 87bc 20b1 4d3d dfdd f23c
0.024839193 0.054866515 0.019650474 -0.093163885 0.038524404 -0.024544366 0.052777283 0.029992074
0.013381447 0.037031654 0.057451263 0.027814496 0.06806873 0.08466743 -0.08844641 -0.08109365
-0.08979361 -0.08729746 0.04652739 0.05346762 0.0073075034 -0.036010828 -0.079163715 -0.08521611
0.022166513 0.021394677 0.031363357 -0.023559434 0.02248036 0.017409809 -0.038028847 0.07365178
-0.0238557 -0.021606388 -0.056982297 0.061626635 0.07766625 0.0039517377 -0.05644734 -0.072596334
-0.08632356 -0.026247473 0.04302169 -0.048917297 -0.044913556 -0.070422694 0.0066377274 0.04317759
-0.086861506 -0.045407392 0.035824683 0.06469715 0.051844392 -0.0401457 -0.008538719 -0.05046272
0.027242037 0.06991247 -0.005271359 -0.059653025 0.08418771 0.033043772 0.025167992 0.07757377
-0.044493385 -0.0081519075 0.019114638 0.069132045 0.0385322 -0.011251058 0.0684379 -0.016596863
-0.05851627 -0.016527176 0.08484176 -0.098330036 0.076906346 -0.06801424 -0.0550812 -0.09683236
0.06031029 0.015168703 -0.0811306 -0.033322994 0.05387422 0.084755845 0.0039164745 0.016336793
-0.050604135 0.036399208 0.025221368 -0.07679813 0.07465155 0.06190285 0.07068422 0.012590127
-0.037963938 0.0660236 -0.06315596 -0.07657653 0.005716482 0.029531937 0.013101694 0.008657816
0.015571469 -0.0301135 -0.052717626 -0.10157058 -0.03662372 0.038456693 -0.04001215 -0.058640543
-0.016645908 0.073831975 0.04717548 -0.06577115 -0.006108058 -0.08468184 0.015255345 -0.04048345
0.035807636 0.018537322 0.0026289113 -0.0015313906 0.062027887 -0.016516343 0.050217748 0.029646812
