models/puffer_gpu_policy.pt (torch, 96165 bytes, 9 tensors)

shared.0.weight f4 [128, 36]
0.1274231 0.13833466 -0.039045416 0.15310189 -0.036517262 0.033631783 -0.08114251 0.097880445
0.14692383 -0.12227136 0.14486603 0.031193217 0.123134814 0.022571763 0.08036469 -0.023531836
0.12848097 0.02463482 -0.07780665 0.042483054 -0.07678944 -0.019545477 -0.067693055 0.11056183
-0.1315617 -0.07683506 -0.047062457 -0.10021208 0.01573052 -0.16461319 0.15051818 -0.14157805
0.12867123 0.027736526 -0.054117423 0.10299166 0.023085088 0.13127726 0.014992136 -0.056111537
0.041357946 -0.048789278 0.06678583 0.14533314 0.093050376 -0.0763881 0.092850484 0.02631186
0.0811698 -0.1050532 -0.1684598 -0.06780882 -0.13124648 0.13329738 0.04453015 0.065675296
0.0492948 -0.006408504 0.1270254 -0.12188831 0.0070348443 -0.11722572 0.047887884 -0.060901765
0.047564067 -0.03822889 0.13472727 -0.10228748 -0.10290495 -0.10289612 0.14640185 0.052036617
0.16037512 -0.13754605 -0.16531269 -0.13039397 -0.11211485 0.06750669 0.05967931 0.1384874
-0.086070895 -0.113618635 0.08842969 -0.06736742 0.10115397 -0.039550107 0.09534099 -0.12949467
-0.08410829 0.050812744 0.035234593 -0.042493127 0.09934491 0.11330154 -0.12086223 -0.08897804
0.15261033 -0.05623875 -0.059086066 -0.16126578 -0.09544504 0.041633945 -0.021998864 -0.120981
0.003909449 -0.11384692 -0.14139944 -0.09177711 -0.14586869 -0.106123015 0.16660148 0.03147916
0.05135995 -0.1554474 -0.109462306 -0.055475973 0.026061853 -0.14665356 -0.071812175 -0.0997781
0.0004618764 -0.062017202 -0.011549294 -0.112938285 -0.114399195 -0.09723364 -0.057049572 -0.13154683
0.13974498 -0.03307734 0.14339946 0.05193035 -0.14113283 0.115339205 -0.04585747 -0.06388768
-0.13834509 -0.16569345 0.04768511 -0.036407314 0.06488719 -0.13677725 0.12373819 -0.12234229
-0.031496823 0.0317 0.08300016 0.13122375 0.14849187 -0.13559231 0.038824756 -0.075037904
-0.021425188 -0.12799947 0.14856239 -0.12557049 0.085838534 0.05529704 0.05087537 -0.09336058
0.1482424 0.033320352 0.018156057 -0.1501232 0.06671187 -0.028248832 -0.079603575 0.13992108
0.03385342 -0.09548896 -0.08762534 -0.01122893 0.0897898 -0.0458594 -0.098365456 -0.060342286
-0.12778287 0.056187853 0.12573633 -0.16017702 0.039420232 0.089739576 0.033305723 -0.056005616
0.09031302 0.09105104 0.065908924 -0.025901884 -0.041190404 0.021054221 -0.027321406 -0.046172928
0.110028274 0.14685412 -0.012878731 -0.033767216 0.0060585327 -0.006338286 0.043689385 0.048826545
-0.14782721 -0.058012377 0.1439814 0.06841963 -0.004676509 -0.09686345 -0.09835455 -0.14567743
-0.050705943 0.05990516 0.10988734 0.0805605 -0.14370301 -0.096704744 -0.022681806 0.16484557
0.024109583 -0.04316179 0.068952546 -0.06348026 -0.10787594 0.12164788 -0.07578363 -0.033411127
-0.16580072 0.11154511 0.12627244 0.060741365 -0.11621237 -0.16448998 -0.13536316 0.12428337
0.08001763 0.14025074 0.08731165 0.04218203 -0.0016321143 -0.126751 -0.14279537 -0.15589145
0.06822699 -0.081828 -0.033542097 -0.095917545 -0.030370593 -0.117305815 -0.10890262 0.055285137
-0.049532734 0.102890536 -0.05346813 -0.12226121 -0.029406488 -0.080791235 -0.050990265 -0.15866594
00000000: 337b 023e 9aa7 0d3e 16ee 1fbd bec6 1c3e
00000010: 2093 15bd 7bc1 093d 0b2e a6bd 8b75 c83d
00000020: 3373 163e 6869 fabd c357 143e eb88 ff3c
00000030: 1b2e fc3d 6be8 b83c 3e96 a43d d6c5 c0bc
00000040: 8490 033e f6ce c93c 1859 9fbd b602 2e3d
00000050: c843 9dbd d61d a0bc a8a2 8abd 3e6e e23d
00000060: 1cb8 06be b35b 9dbd 90c4 40bd fe3b cdbd
00000070: 4bdd 803c 5c90 28be 7021 1a3e d6f9 10be
00000080: 64c2 033e b637 e33c 3baa 5dbd 4bed d23d
00000090: f01c bd3c 8c6d 063e 93a1 753c 36d5 65bd
000000a0: f366 293d 44d7 47bd 02c7 883d 36d2 143e
000000b0: 3291 be3d 5d71 9cbd 6528 be3d f88b d73c
000000c0: 5a3c a63d 2226 d7bd ba80 2cbe 5adf 8abd
000000d0: 7a65 06be 1c7f 083e 3f65 363d c580 863d
000000e0: 58e9 493d 6efe d1bb f212 023e 94a0 f9bd
000000f0: 8d84 e63b 0a14 f0bd 1626 443d 2174 79bd
00000100: 8ad2 423d e695 1cbd f2f5 093e 197c d1bd
00000110: d5bf d2bd 33bb d2bd 5eea 153e 5924 553d
00000120: 6039 243e dfd8 0cbe bb47 29be ff85 05be
00000130: 789c e5bd f340 8a3d 4b72 743d a4cf 0d3e
00000140: f045 b0bd e3b0 e8bd a01a b53d eef7 89bd
00000150: d029 cf3d 4bff 21bd 2342 c33d 409a 04be
00000160: f840 acbd 0621 503d 2652 103d 460d 2ebd
00000170: 5875 cb3d a30a e83d 9e86 f7bd 1e3a b6bd
00000180: e245 1c3e 9b5a 66bd 3b04 72bd db22 25be
00000190: b078 c3bd 5b88 2a3d f636 b4bc e3c4 f7bd
000001a0: d61a 803b 9328 e9bd 04cb 10be a3f5 bbbd
000001b0: 9a5e 15be 0657 d9bd 9499 2a3e 4bf0 003d
000001c0: d05e 523d 9a2d 1fbe c62d e0bd c63a 63bd
000001d0: ab7f d53c 5a2c 16be 4312 93bd 7658 ccbd
000001e0: 0028 f239 c005 7ebd 4039 3dbc 304c e7bd
000001f0: 204a eabd 6e22 c7bd d0ac 69bd 36b4 06be
00000200: 4f19 0f3e 1b7c 07bd 4fd7 123e ebb4 543d
00000210: 2085 10be f636 ec3d 0bd5 3bbd 8bd7 82bd
00000220: 56aa 0dbe 8bab 29be 7651 433d d61f 15bd
00000230: 93e3 843d 560f 0cbe 736a fd3d 988e fabd
00000240: d002 01bd dcd7 013d fdfb a93d 855f 063e
00000250: 410e 183e b6d8 0abe b506 1f3d 79ad 99bd
00000260: e083 afbc 4b12 03be bd20 183e 8d95 00be
00000270: 1dcc af3d 267f 623d b162 503d d533 bfbd
00000280: dbcc 173e ec7a 083d 03bc 943c e5b9 19be
00000290: 3ca0 883d 186a e7bc 3307 a3bd 7947 0f3e
000002a0: e2a9 0a3d b78f c3bd ea74 b3bd 8cf9 37bc
000002b0: b7e3 b73d 11d7 3bbd d473 c9bd 7929 77bd
000002c0: 83d9 02be 3c25 663d 06c1 003e 7205 24be
000002d0: 1c77 213d 62c9 b73d 956b 083d 2566 65bd
000002e0: 08f6 b83d f878 ba3d 42fb 863d 3030 d4bc
000002f0: 45b7 28bd e779 ac3c 24d1 dfbc d31f 3dbd
00000300: 8156 e13d ed60 163e 5001 53bc 7e4f 0abd
00000310: a886 c63b 66b1 cfbb a4f3 323d 58fe 473d
00000320: 0460 17be 639e 6dbd dc6f 133e 971f 8c3d
00000330: 673d 99bb 5860 c6bd 1c6e c9bd 772c 15be
00000340: 09b1 4fbd 1d5f 753d 9d0c e13d e7fc a43d
00000350: e226 13be 230d c6bd 32cf b9bc 47cd 283e
00000360: 7681 c53c 6bca 30bd fe36 8d3d f001 82bd
00000370: 10ee dcbd 8622 f93d 7334 9bbd 1bda 08bd
00000380: aac7 29be c371 e43d 904d 013e f0cb 783d
00000390: c000 eebd 1070 28be a49c 0abe 4888 fe3d
000003a0: 48e0 a33d e49d 0f3e 73d0 b23d 10c7 2c3d
000003b0: abec d5ba 04cb 01be f338 12be 02a2 1fbe
000003c0: 98ba 8b3d 7095 a7bd 7063 09bd 6b70 c4bd
000003d0: c0cb f8bc 083e f0bd 5608 dfbd ab72 623d
000003e0: d6e2 4abd 46b8 d23d 6601 5bbd 1664 fabd
000003f0: e0e5 f0bc e075 a5bd 2bdb 50bd 5379 22be

shared.0.bias f4 [128]
0.0096511245 -0.12935492 0.04528316 -0.14312063 -0.07135405 0.11960211 0.15634236 -0.013030688
-0.122428074 -0.13337623 -0.038804118 -0.088418394 0.1290545 -0.11515674 0.09675465 0.031688176
-0.050692003 0.13585788 0.09274821 -0.005829235 -0.11659212 -0.049054265 0.05455975 0.14227545
-0.058124784 -0.06926386 -0.16496669 0.102440655 0.162671 0.11832564 -0.089269064 0.11939635
-0.04686505 0.09079613 0.097452566 -0.1322885 0.041244727 0.06653714 -0.10359416 0.15697472
0.13362412 0.13929418 0.0021491903 -0.0891731 -0.09107985 0.058907907 -0.029479338 0.13605958
0.14160167 0.010275864 -0.1360813 0.062969685 0.14914918 -0.045463808 -0.08722516 -0.038987797
0.027473025 -0.12366067 0.09258057 0.07124108 -0.063721955 -0.061740816 -0.079081915 0.13185114
0.09884894 0.04727869 -0.0074751973 0.044992693 0.15795179 0.056370385 -0.08312172 0.06447171
-0.066140115 -0.005918185 -0.10734622 -0.008405351 0.008694828 -0.104643315 0.106567465 0.15758501
-0.13578215 0.044685446 -0.11710706 -0.03655168 0.083436154 -0.006542548 0.054101367 -0.057339225
0.16247925 -0.07461207 0.027699776 0.017107904 0.11082741 0.020631436 0.10048654 0.042942207
0.102961645 0.005725717 0.055613738 0.16792566 -0.054299295 -0.067821406 0.11755958 0.06665726
-0.16088898 0.055753235 -0.16684873 -0.08688209 0.06522399 0.08779584 -0.037632488 0.1410777
0.16481312 0.12797345 -0.14943063 -0.060622953 0.0101401415 0.13883758 -0.02439566 0.033338558
0.09043292 -0.08719989 -0.10093258 0.16608849 -0.0037189326 0.114330485 -0.16588248 -0.06361648
00000000: c01f 1e3c 9e75 04be d67a 393d 378e 12be
00000010: 1222 92bd f3f1 f43d 3618 203e ab7e 55bc
00000020: 92bb fabd c793 08be 11f1 1ebd b414 b5bd
00000030: dd26 043e 4cd7 ebbd 4d27 c63d 76cb 013d
00000040: 6ba2 4fbd 541e 0b3e c6f2 bd3d 2b03 bfbb
00000050: d9c7 eebd 20ed 48bd 0b7a 5f3d a8b0 113e
00000060: 4114 6ebd 36da 8dbd 07ed 28be 68cc d13d
00000070: 3a93 263e b754 f23d b3d2 b6bd 1386 f43d
00000080: 91f5 3fbd 52f3 b93d 3695 c73d a376 07be
00000090: 3bf0 283d a044 883d 2d29 d4bd fbbd 203e
000000a0: c3d4 083e 22a3 0e3e 6ed9 0c3b 63a0 b6bd
000000b0: 1388 babd 6b49 713d a77e f1bc 3453 0b3e
000000c0: 0700 113e 195c 283c e558 0bbe 40f6 803d
000000d0: 90ba 183e 4238 3abd 1ba3 b2bd abb1 1fbd
000000e0: 1c0f e13c ce41 fdbd e29a bd3d d8e6 913d
000000f0: a880 82bd f0e3 7cbd b3f5 a1bd fc03 073e
00000100: 5071 ca3d 4da7 413d 80f2 f4bb 424a 383d
00000110: 1dbe 213e a2e4 663d b83b aabd be09 843d
00000120: 7874 87bd 56ed c1bb 56d8 dbbd 99b6 09bc
00000130: c074 0e3c 3c4f d6bd 0b40 da3d f75d 213e
00000140: 7a0a 0bbe 1608 373d d4d5 efbd 37b7 15bd
00000150: 93e0 aa3d df62 d6bb 6599 5d3d 89dc 6abd
00000160: f660 263e 37ce 98bd a4ea e23c e025 8c3c
00000170: 7bf9 e23d 4203 a93c e3cb cd3d 2be4 2f3d
00000180: 8edd d23d cc9e bb3b 3bcb 633d b4f4 2b3e
00000190: f068 5ebd f3e5 8abd 14c3 f03d 9a83 883d
000001a0: 15c0 24be 815d 643d 65da 2abe 3def b1bd
000001b0: 2894 853d 4ece b33d 8624 1abd ac76 103e
000001c0: c5c4 283e 790b 033e 5804 19be c64f 78bd
000001d0: d622 263c 702b 0e3e 68d9 c7bc 038e 083d
000001e0: e534 b93d db95 b2bd beb5 cebd 1a13 2a3e
000001f0: 56b9 73bb 1a26 ea3d 19dd 29be 5b49 82bd

shared.2.weight f4 [128, 128]
0.06202092 -0.008557243 0.029771416 -0.07404469 0.08603074 -0.04411556 -0.0044693043 -0.057894047
-0.039215565 -0.07577419 -0.07736525 -0.018057363 -0.038987163 0.065292336 -0.00042764298 0.068730466
-0.014804122 0.018752027 0.0848884 -0.06839492 -0.038290296 0.07556334 -0.02026453 -0.023804214
0.007093504 -0.047450587 0.0063567036 -0.036736764 0.028040277 -0.018762682 -0.029659938 -0.03329645
0.022964036 0.044356797 -0.08080816 -0.061644666 -0.084827855 0.04125934 0.06628915 -0.084923655
0.02297748 0.017925508 -0.04743206 0.019096473 0.068154216 0.08669742 0.038221363 -0.01752606
-0.050291263 -0.033663467 0.0007249574 -0.0064909095 0.06449537 -0.07987738 0.007889216 -0.0281118
0.0073708408 0.08499791 0.0025857512 -0.015329894 -0.029958032 -0.08820609 -0.08008075 0.03851246
-0.053975847 0.05018221 -0.025059188 0.031888243 0.064523086 0.012930084 0.030348934 0.074694835
-0.02777472 0.06500257 -0.07433688 0.08093686 -0.028992638 -0.0033267455 0.049584787 0.006489171
0.077287994 -0.038848214 -0.048717037 0.07890461 -0.05335046 0.060827512 0.08512833 0.059832856
-0.03341735 -0.0013065839 -0.07965562 -0.04812876 -0.018294493 -0.05839798 0.050992396 0.04631479
-0.025293471 -0.013900778 0.085379675 -0.0054442245 0.075073875 0.08187525 -0.03100458 -0.08441818
0.08244573 -0.047522236 0.08452349 -0.056426823 0.016031248 0.026133701 -0.020879064 0.06892649
-0.0801394 -0.03672869 -0.013913475 0.06769518 0.04093702 0.05685614 0.038045887 0.07949902
-0.022012414 -0.027286522 -0.012137386 0.034770865 -0.025919942 0.032463368 0.024233373 0.020782864
0.072013624 0.017591044 0.058653027 -0.02464282 -0.075862 0.057615887 0.036657505 0.0742528
0.03736732 0.005372182 -0.06019298 -0.080207914 0.021180814 0.07571261 -0.0032855612 -0.02883544
0.044218954 -0.04279275 0.031189015 -0.071725376 -0.076546654 -0.051565614 -0.011535389 0.03339903
0.04534963 -0.055945367 -0.0145624615 0.029103251 -0.019492421 0.004954596 0.06085835 -0.02549858
0.04919657 0.075426206 0.029465504 -0.012098029 -0.05596584 -0.05842004 -0.013666282 0.031227248
0.051945873 -0.0042638807 0.07483679 -0.035008185 0.017625758 -0.04525225 0.027365353 0.07904443
0.034575824 0.008276351 -0.028932743 -0.06949428 -0.060485005 -0.07226651 0.06282158 -0.036873475
-0.0096087735 -0.07920537 -0.021041892 0.07518004 0.016250212 -0.01578293 0.04606878 0.06987007
0.068780884 -0.06181162 0.0063460087 -0.068912186 -0.05734797 0.07150585 -0.07042069 -0.043347146
0.04238843 0.085999504 -0.08586186 -0.05350387 -0.03466003 0.07206473 0.054527793 0.058709987
0.060241014 -0.018527726 0.06876999 0.001110015 0.01191303 -0.019862924 0.041128132 0.042949222
-0.005748824 0.081424884 -0.019324157 0.022371948 0.082894236 0.0534137 -0.03218586 -0.04003825
0.02065363 0.00294737 0.0062206746 0.060592495 0.030896116 -0.049572058 -0.0686198 0.08717759
-0.0061460985 -0.031228606 -0.06132885 0.08856031 0.044601258 -0.056032516 -0.07633807 0.076784864
0.041652415 -0.010872852 -0.0698503 0.05357272 -0.05999986 0.047049373 -0.08033232 -0.0752445
-0.08112668 0.0801278 0.08032192 -0.07300243 0.068327226 -0.05015399 -0.07854851 0.042537823
00000000: a609 7e3d ae33 0cbc 2fe3 f33c bea4 97bd
00000010: e230 b03d 84b2 34bd 3e73 92bb 4f22 6dbd
00000020: 80a0 20bd 802f 9bbd ac71 9ebd 09ed 93bc
00000030: 01b1 1fbd fdb7 853d 4535 e0b9 8fc2 8c3d
00000040: fd8c 72bc da9d 993c f8d9 ad3d a312 8cbd
00000050: 49d6 1cbd f4c0 9a3d cd01 a6bc 0e01 c3bc
00000060: a070 e83b 8c5b 42bd e54b d03b 4a79 16bd
00000070: b9b4 e53c 32b4 99bc 66f9 f2bc dc61 08bd
00000080: 131f bc3c 79af 353d c07e a5bd 1e7f 7cbd
00000090: 3aba adbd 8eff 283d 9bc2 873d 74ec adbd
000000a0: 453b bc3c 84d8 923c 1f48 42bd 3570 9c3c
000000b0: 7094 8b3d 6b8e b13d 018e 1c3d d092 8fbc
000000c0: 36fe 4dbd b4e2 09bd 110b 3e3a b2b1 d4bb
000000d0: 2616 843d c096 a3bd c541 013c b84a e6bc
000000e0: 1887 f13b 6213 ae3d b575 293b 3c2a 7bbc
000000f0: 8c6a f5bc 65a5 b4bd 6001 a4bd 3ebf 1d3d
00000100: c715 5dbd dc8b 4d3d ed48 cdbc 3f9d 023d
00000110: ae24 843d b4d8 533c 549e f83c 9bf9 983d
00000120: cf87 e3bc 1120 853d ef3d 98bd 39c2 a53d
00000130: f881 edbc 8705 5abb 6b19 4b3d 1da3 d43b
00000140: 2b49 9e3d 4e1f 1fbd 848b 47bd bd98 a13d
00000150: 0386 5abd 4526 793d c357 ae3d 4c13 753d
00000160: a2e0 08bd ae41 abba 7c22 a3bd aa22 45bd
00000170: 55de 95bc b832 6fbd 67dd 503d 94b4 3d3d
00000180: 4134 cfbc 17c0 63bc 8adb ae3d 7765 b2bb
00000190: 55c0 993d 36ae a73d 51fd fdbc 70e3 acbd
000001a0: 4fd9 a83d ada6 42bd a71a ad3d d01f 67bd
000001b0: f753 833c 5816 d63c 920a abbc 5529 8d3d
000001c0: 2020 a4bd d370 16bd 58f5 63bc c5a3 8a3d
000001d0: 94ad 273d fce1 683d 01d6 1b3d 62d0 a23d
000001e0: 6153 b4bc fc87 dfbc e3db 46bc e56b 0e3d
000001f0: 0f56 d4bc 4ff8 043d 1185 c63c d340 aa3c
00000200: e17b 933d 181b 903c 283e 703d bddf c9bc
00000210: 895d 9bbd a3fe 6b3d 2e26 163d da11 983d
00000220: 7a0e 193d 2109 b03b ea8c 76bd 0c44 a4bd
00000230: 6383 ad3c 360f 9b3d 9252 57bb 4d38 ecbc
00000240: ef1e 353d 7347 2fbd 1b80 ff3c c1e4 92bd
00000250: 7ec4 9cbd 7736 53bd eefe 3cbc 6ccd 083d
00000260: 89c0 393d f826 65bd 6497 6ebc f169 ee3c
00000270: 92ae 9fbc 2a5a a23b 9b46 793d 66e2 d0bc
00000280: 5882 493d 0e79 9a3d a461 f13c d036 46bc
00000290: 703c 65bd da49 6fbd 8be8 5fbc 49d0 ff3c
000002a0: 32c5 543d 06b8 8bbb 0844 993d be64 0fbd
000002b0: e563 903c 6c5a 39bd 4e2d e03c 0ce2 a13d
000002c0: 619f 0d3d 8899 073c 5c04 edbc 0453 8ebd
000002d0: 20bf 77bd 7700 94bd 9aa8 803d a408 17bd
000002e0: 1e6e 1dbc 6d36 a2bd 0c60 acbc fef7 993d
000002f0: 2a1f 853c 344b 81bc 9eb2 3c3d 0a18 8f3d
00000300: fedc 8c3d 2e2e 7dbd 2ef2 cf3b d521 8dbd
00000310: b4e5 6abd a971 923d b938 90bd c78c 31bd
00000320: 7e9f 2d3d 8220 b03d 58d8 afbd e026 5bbd
00000330: adf7 0dbd ac96 933d 8958 5f3d e279 703d
00000340: 48bf 763d 75c7 97bc 48d7 8c3d ec7d 913a
00000350: df2e 433c 92b7 a2bc f975 283d 86eb 2f3d
00000360: a260 bcbb 17c2 a63d b24d 9ebc 6045 b73c
00000370: 74c4 a93d 53c8 5a3d 52d5 03bd 26ff 23bd
00000380: cd31 a93c aa28 413b cdd6 cb3b d62f 783d
00000390: da19 fd3c 120c 4bbd 8a88 8cbd 2a8a b23d
000003a0: 3665 c9bb 22d3 ffbc f633 7bbd 1c5f b53d
000003b0: cfaf 363d 5a82 65bd 2257 9cbd 6241 9d3d
000003c0: b99b 2a3d 0c24 32bc ad0d 8fbd 126f 5b3d
000003d0: 6ac2 75bd d8b6 403d 4585 a4bd ca19 9abd
000003e0: bf25 a6bd 0b1a a43d d27f a43d 4c82 95bd
000003f0: 25ef 8b3d 456e 4dbd 0bde a0bd 243c 2e3d

shared.2.bias f4 [128]
-0.057949357 -0.038658723 -0.029571664 0.038510196 -0.031922296 0.06416882 -0.059112407 -0.011575774
0.07846278 -0.0370942 0.0015848058 -0.025970688 0.034794256 -0.04459678 -0.07037052 -0.03684937
0.03395329 -0.026503373 -0.06778276 -0.014846071 -0.03492324 0.070059195 -0.012848919 0.039222807
0.0850035 -0.06188269 0.033945482 0.008582279 0.07489887 0.0063456926 0.025925169 -0.0865267
0.08146644 -0.06779745 0.065514885 -0.054131366 0.01895781 0.004632102 0.06601161 -0.08587882
0.0740075 0.0822391 0.02565839 0.08168269 0.071404934 0.0007223011 0.053474396 0.006075078
0.019584293 -0.06134655 -0.023921445 -0.04811304 -0.048433248 -0.059866108 -0.037703842 0.014068049
-0.0026502465 0.04337989 0.03868851 -0.024821827 0.06593839 -0.05787455 -0.0464664 0.085565224
0.0390018 0.04030533 -0.08318852 0.064038344 -0.07237788 0.013368432 -0.044513203 0.037085466
-0.052822445 -0.07207416 -0.076032616 -0.069129646 -0.033067394 0.0028976062 -0.031208528 -0.032988314
0.018723229 0.07455045 -0.029266693 0.071512155 -0.03284928 0.07044188 -0.038612455 -0.03941361
-0.028024158 -0.01665934 -0.055894464 0.060292687 -0.0707877 0.0023185015 -0.08416611 -0.055223275
0.008743487 -0.01339784 -0.01735052 0.008025329 -0.025103042 -0.07789093 0.00013405218 0.024719147
0.06302566 -0.05617669 -0.060404483 -0.074336104 0.036138456 -0.074531175 0.06924545 0.029136442
0.06073149 -0.032141913 0.060155887 -0.04180294 -0.010867154 0.06766711 -0.043384917 -0.0213482
0.009896112 0.02850938 -0.008663553 -0.066262275 -0.020972198 0.038166735 -0.068824634 -0.06943442
00000000: 4e5c 6dbd 9c58 1ebd 4640 f2bc debc 1d3d
00000010: f4c0 02bd f16a 833d da1f 72bd 51a8 3dbc
00000020: 18b1 a03d 16f0 17bd 42b9 cf3a 7bc0 d4bc
00000030: 6c84 0e3d 1dab 36bd 6b1e 90bd 5def 16bd
00000040: 9b12 0b3d 9a1d d9bc b0d1 8abd ef3c 73bc
00000050: ac0b 0fbd 327b 8f3d 4684 52bc 18a8 203d
00000060: 5116 ae3d b478 7dbd 6b0a 0b3d b09c 0c3c
00000070: 9464 993d 87ef cf3b 0561 d43c e934 b1bd
00000080: e0d7 a63d 64d9 8abd ab2c 863d dab8 5dbd
00000090: 694d 9b3c e3c8 973b 1831 873d 3ce1 afbd
000000a0: 3f91 973d f96c a83d 8b31 d23c 4149 a73d
000000b0: c03c 923d ce58 3d3a f807 5b3d 7311 c73b
000000c0: 3d6f a03c 8546 7bbd e8f6 c3bc 2e12 45bd
000000d0: f161 46bd 2a36 75bd 586f 1abd ad7d 663c
000000e0: c2af 2dbb 1daf 313d d877 1e3d 2557 cbbc
000000f0: b50a 873d dd0d 6dbd 8d53 3ebd d23c af3d
00000100: 5ac0 1f3d 3417 253d be5e aabd 8926 833d
00000110: db3a 94bd 4507 5b3c 7a53 36bd eee6 173d
00000120: 595c 58bd 9e9b 93bd fdb6 9bbd d893 8dbd
00000130: ad71 07bd c4e5 3d3b 07a9 ffbc c11e 07bd
00000140: 7561 993c e8ad 983d b4c0 efbc f774 923d
00000150: f78c 06bd d543 903d 1828 1ebd 2a70 21bd
00000160: eb92 e5bc 2b79 88bc 98f1 64bd 77f5 763d
00000170: 24f9 90bd 00f2 173b 485f acbd cd31 62bd
00000180: d840 0f3c 9d82 5bbc ad22 8ebc ab7c 033c
00000190: e5a4 cdbc 4885 9fbd 5c90 0c39 cf7f ca3c
000001a0: 9913 813d 8719 66bd b16a 77bd 873d 98bd
000001b0: eb05 143d cda3 98bd 8fd0 8d3d 8caf ee3c
000001c0: 95c1 783d 3da7 03bd 0566 763d 8f39 2bbd
000001d0: 260c 32bc 0e95 8a3d 62b4 31bd 6ce2 aebc
000001e0: 4d23 223c 818c e93c 93f1 0dbc 84b4 87bd
000001f0: e3cd abbc b954 1c3d eef3 8cbd a233 8ebd

action_heads.0.weight f4 [10, 128]
-0.027111402 0.022316223 -0.028631436 0.031765625 0.013737678 0.06776066 -0.005180413 -0.045723878
-0.02795175 -0.06802288 -0.031778544 -0.043619048 -0.06740643 -0.083701134 -0.07326475 0.041522026
-0.03712178 0.07716866 -0.037572693 0.041396458 -0.051647574 0.08619399 0.02060099 0.011687743
0.026500337 0.020895954 -0.034638368 0.023626337 -0.05166959 0.04574062 0.08473116 0.08542165
-0.015846742 -0.014657951 0.078054234 -0.055123698 0.026625417 0.022978945 0.07956397 -0.031489953
0.07094186 -0.0080745835 0.085689105 -0.08829372 -0.050877903 -0.016355589 -0.084143095 -0.008029227
-0.06976813 0.05524063 0.075082794 -0.0060314457 0.054214597 0.046639767 0.035169963 0.011083866
-0.057781156 -0.07661126 0.03539802 -0.059874203 0.068691224 0.02037655 -0.04200013 -0.037205942
0.024297982 -0.002585547 0.07738542 -0.03359855 -0.05210268 -0.08077768 0.016526548 -0.06279781
-0.006446263 0.09003939 -0.036237936 0.07822292 0.05379948 -0.05417778 0.046813358 -0.03220387
0.047864914 -0.051644113 0.023777539 0.049713787 0.06791099 -0.032873772 0.05201923 0.066281274
-0.01970126 0.061873637 -0.01877366 -0.05034485 0.033935804 0.027199393 -0.080295876 -0.036480047
-0.018701218 0.05814596 -0.006003534 -0.084221475 0.014021519 0.023434732 0.01738101 0.07138491
-0.08682569 0.012433285 -0.048498347 -0.038117666 -0.05356906 -0.019181177 -0.08287885 -0.07923287
0.05961545 0.054174293 -0.030796945 -0.027826823 -0.031474866 0.021837873 -0.03210793 0.03645517
-0.00022169242 0.022484066 -0.041689478 -0.041753996 0.037915275 0.07029744 -0.047920797 0.04926742
-0.0063697267 0.09047372 -0.03473843 0.07846087 0.038656555 0.070480205 0.0030581544 0.06276706
0.003285984 0.0013307657 -0.01558543 0.025304789 0.08861737 0.070782304 -0.045280866 -0.033773765
0.04811255 -0.030107979 -0.02828261 0.022064192 -0.04727763 -0.061732754 0.07105175 -0.07996704
-0.053338762 0.039921865 -0.012826961 0.047374252 -0.012065463 0.003433135 -0.017072445 0.024997432
0.0272229 -0.008688171 0.05978585 -0.051758714 -0.022141868 0.010278532 0.04390455 -0.027628496
0.0034626164 -0.07862577 0.042829026 0.05304148 -0.07340786 -0.07005441 0.00809235 0.07720468
0.033289697 0.06726621 -0.072417885 0.06331156 0.08505461 -0.0674607 0.020215115 -0.017103307
0.08734392 -0.04233067 -0.08340656 -0.072216064 0.06391551 0.026945518 -0.07893635 -0.07103783
0.05033835 -0.04423932 -0.06032259 -0.037670758 -0.034492347 -0.05421481 -0.038636763 0.015488518
0.021088336 0.07804409 -0.08079811 -0.021490809 -0.026154364 -0.048327662 0.029763503 -0.0393922
-0.03094117 -0.06857562 -0.034002364 0.004343549 -0.045604937 -0.016992101 -0.052055698 0.019772409
0.034443878 -0.052445114 -0.036881085 -0.012997571 -0.043379262 -0.035676405 0.042877022 -0.01485984
0.037953686 0.0008296923 0.0036645208 -0.062163703 0.0063657123 0.08344149 0.08541861 0.061824493
-0.027818974 0.0029642796 0.08012709 -0.018322436 0.024796223 0.009879868 0.05664274 -0.039665192
0.016947374 -0.07836373 -0.018257583 0.041163463 0.009131147 0.08190847 -0.059696876 0.03943983
-0.004335646 0.08261779 0.079844445 0.080754675 -0.05840452 0.09126356 -0.055587992 -0.037938014
00000000: bb18 debc 83d0 b63c 798c eabc ac1c 023d
00000010: ff13 613c 1ac6 8a3d 74c0 a9bb f648 3bbd
00000020: 12fb e4bc 944f 8bbd 382a 02bd e3a9 32bd
00000030: 620c 8abd 806b abbd d40b 96bd 0013 2a3d
00000040: 020d 18bd 9a0a 9e3d d3e5 19bd 558f 293d
00000050: 688c 53bd 7a86 b03d 68c3 a83c f27d 3f3c
00000060: 3c17 d93c fe2d ab3c f6e0 0dbd 058c c13c
00000070: 7ea3 53bd 845a 3b3d 8887 ad3d 8cf1 ae3d
00000080: 07d1 81bc e727 70bc e6da 9f3d 63c9 61bd
00000090: 8c1d da3c 573e bc3c 6ff2 a23d 9cfb 00bd
000000a0: f749 913d 424b 04bc c57d af3d 56d3 b4bd
000000b0: 5965 50bd 28fc 85bc 3753 acbd 058d 03bc
000000c0: 98e2 8ebd 0044 623d 02c5 993d 6fa3 c5bb
000000d0: 2010 5e3d 5709 3f3d 610e 103d 1a99 353c
000000e0: efab 6cbd 5de6 9cbd 84fd 103d a73e 75bd
000000f0: fcad 8c3d b9ec a63c 5408 2cbd 4265 18bd
00000100: 900c c73c 4872 29bb 3f7c 9e3d a29e 09bd
00000110: 9f69 55bd c56e a5bd af62 873c 239c 80bd
00000120: 2c3b d3bb 9266 b83d 3b6e 14bd 5733 a03d
00000130: d85c 5c3d 85e9 5dbd 5dbf 3f3d 35e8 03bd
00000140: 000e 443d c788 53bd 1dc9 c23c afa0 4b3d
00000150: eb14 8b3d a6a6 06bd 1e12 553d 7abe 873d
00000160: 8964 a1bc 366f 7d3d 38cb 99bc 6736 4ebd
00000170: 4500 0b3d 43d1 de3c 2a72 a4bd 1a6c 15bd
00000180: 4c33 99bc 752a 6e3d 4bb9 c4bb 4f7c acbd
00000190: 83ba 653c 32fa bf3c 9f62 8e3c 4032 923d
000001a0: abd1 b1bd fab4 4b3c 34a6 46bd 4521 1cbd
000001b0: 3b6b 5bbd d821 9dbc 63bc a9bd d844 a2bd
000001c0: 552f 743d dde5 5d3d e049 fcbc 14f5 e3bc
000001d0: caeb 00bd 57e5 b23c 9b83 03bd 0452 153d
000001e0: 1b76 68b9 8130 b83c 96c2 2abd 3d06 2bbd
000001f0: 0c4d 1b3d 1bf8 8f3d 9948 44bd a2cc 493d
00000200: 24b9 d0bb 494a b93d e249 0ebd 18b0 a03d
00000210: 5656 1e3d ed57 903d 516b 483b 048c 803d
00000220: aa59 573b 166d ae3a 085a 7fbc fd4b cf3c
00000230: 067d b53d 50f6 903d 6e78 39bd 5c56 0abd
00000240: aa11 453d 02a5 f6bc efb0 e7bc f7bf b43c
00000250: 30a6 41bd 7cdb 7cbd 9483 913d c2c5 a3bd
00000260: bf79 5abd 1c85 233d 2d28 52bc 810b 423d
00000270: 38ae 45bc 73fe 603b 83db 8bbc 6ac7 cc3c
00000280: 8f02 df3c d558 0ebc 02e2 743d f200 54bd
00000290: dd62 b5bc 4a67 283c 42d5 333d 2855 e2bc
000002a0: 10ed 623b 8c06 a1bd 7d6d 2f3d 0642 593d
000002b0: dc56 96bd b078 8fbd c795 043c 7d1d 9e3d
000002c0: c75a 083d dec2 893d d44f 94bd 7ea9 813d
000002d0: 1d31 ae3d d628 8abd 2b9a a53c 3c1c 8cbc
000002e0: 5ee1 b23d ed62 2dbd 0fd1 aabd 04e6 93bd
000002f0: 23e6 823d d9bc dc3c 62a9 a1bd 487c 91bd
00000300: 962f 4e3d 4a34 35bd d214 77bd a74c 1abd
00000310: d947 0dbd 5910 5ebd 9541 1ebd 8ec3 7d3c
00000320: 72c1 ac3c 94d5 9f3d 7b79 a5bd 7e0d b0bc
00000330: ad41 d6bc 3af3 45bd 97d2 f33c b759 21bd
00000340: 5678 fdbc 6071 8cbd 1046 0bbd 5454 8e3b
00000350: 3ecc 3abd 0533 8bbc 5b38 55bd bff9 a13c
00000360: 0615 0d3d b0d0 56bd 9f10 17bd c4f3 54bc
00000370: 74ae 31bd 6c21 12bd d19f 2f3d b076 73bc
00000380: 5375 1b3d b57f 593a 7528 703b 5e9f 7ebd
00000390: 7797 d03b 5fe3 aa3d f4ef ae3d ae3b 7d3d
000003a0: 9ee4 e3bc 5c44 423b ac19 a43d ef18 96bc
000003b0: 7321 cb3c 2bdf 213c 3802 683d f877 22bd
000003c0: 38d5 8a3c 2a7d a0bd ed90 95bc 059b 283d
000003d0: ce9a 153c a1bf a73d b684 74bd a98b 213d
000003e0: 0912 8ebb 8433 a93d 7c85 a33d b562 a53d
000003f0: 9439 6fbd 64e8 ba3d 3cb0 63bd e464 1bbd

action_heads.0.bias f4 [10]
-0.07887207 -0.08381636 -0.06998204 -0.042642314 0.018490454 0.07252995 -0.024922956 0.07920724
0.046397712 0.030990446
00000000: ae87 a1bd e9a7 abbd be52 8fbd b5a9 2ebd
00000010: 4b79 973c 958a 943d 3a2b ccbc 6837 a23d
00000020: 870b 3e3d addf fd3c

action_heads.1.weight f4 [2, 128]
0.03715427 -0.012432105 -0.020862728 -0.027876854 -0.08133467 -0.025379509 -0.046626 -0.07361558
-0.066631824 0.07682989 0.0047068545 0.07033628 0.05614455 0.032981046 -0.06826866 -0.030247185
0.030963134 0.023269031 -0.07304586 0.08665857 0.07350462 0.037422538 -0.05373642 0.039825577
0.05294236 0.039255712 -0.045496818 0.0031471506 -0.06921215 -0.04497099 -0.051538102 0.071861714
-0.06291542 0.03260543 0.00084603473 -0.0030863495 0.023098676 -0.062884435 0.04066815 0.065097086
-0.08434405 0.04592838 -0.010027356 0.01625507 -0.01900903 0.02406718 0.05138138 -0.03036339
-0.075761214 -0.016758082 0.059705794 -0.082543634 0.066530585 -6.478227e-05 -0.041518606 0.013938953
0.044225026 -0.07792396 -0.07563598 -0.088047914 0.05110851 -0.08660203 0.056392737 0.052764617
0.020453997 0.08308284 -0.0155923 -0.0031090148 0.037067488 -0.060969442 0.073425196 -0.03614629
-0.07045627 0.032428976 -0.03537969 0.075048134 -0.0132104345 0.06077739 -0.022904305 -0.050947186
-0.020365953 -0.0127901565 0.03496097 0.016189858 -0.03852624 -0.06835371 -0.08715817 0.0887273
0.020648893 -0.00056516484 0.066799454 0.018259784 0.015734747 -0.053185653 -0.06398111 -0.076063395
-0.003496671 -0.009527906 -0.05626718 0.056967303 -0.008058983 0.03022813 -0.025746128 -0.032872014
-0.045507964 -0.018081618 -0.023566537 -0.04651074 0.0822763 0.07015644 0.082780205 0.08315531
-0.032487117 0.0387264 -0.033131298 0.08625977 -0.026901131 -0.06590806 -0.041973434 -0.00053192483
-0.07535134 0.0104603665 0.0018275977 -0.077511035 0.07300235 -0.02555309 0.08139024 -0.0044930456
0.056886066 0.08590794 -0.06248284 0.040626515 0.060303506 0.0080080135 -0.083083265 -0.028363865
0.022590475 -0.067197405 0.079663254 -0.051531833 -0.036764357 0.038883153 -0.085462995 0.052064195
0.00020315993 0.009576913 -0.076930925 -0.078037456 -0.06653513 -0.09068744 0.08148523 -0.029502267
0.019535907 0.008742542 -0.043296594 -0.071015276 -0.07176128 0.029020645 -0.019148283 0.042461727
0.05850736 -0.008693363 0.008272246 -0.014411041 -0.06722136 0.063680716 -0.06873309 -0.011805926
0.08715481 -0.031934824 0.019814488 0.05856586 -0.062316023 0.014373683 -0.03736244 -0.05289638
-0.08038906 0.053064294 -0.036419112 0.07675117 0.083836176 0.0014140608 0.07279997 -0.021541728
0.050684966 -0.006469456 -0.059278212 -0.04463408 -0.05482193 0.022122111 -0.0036968626 0.06976115
0.020416444 -0.022220004 -0.011295018 0.057027858 -0.04728085 0.08723858 -0.0056201555 0.015790345
0.07963463 -0.07974978 0.05810824 0.071469136 0.07324824 0.030835403 -0.027467174 -0.06231437
0.065653056 0.020917933 0.06675297 0.053974465 -0.04913096 0.05888569 0.007380556 -0.08275584
0.005552342 -0.044459414 -0.032351382 -0.030684749 -0.08406865 -0.060442552 0.072546534 -0.047054153
-0.0183398 -0.012317575 0.07041036 0.043900378 -0.037282575 0.004294859 -0.04139358 0.007380082
-0.04464507 -0.0529642 -0.023831818 -0.06843999 -0.039330304 0.030425208 -0.015486796 -0.07337052
-0.059920024 -0.052895296 0.052485887 -0.062502615 -0.0058485176 0.04997142 -0.081856936 0.01631905
0.033995267 0.07907878 0.032644387 -0.030170226 0.08738208 -0.012131531 -0.001808458 0.025471006
00000000: 132f 183d 07b0 4bbc 50e8 aabc 005e e4bc
00000010: cb92 a6bd b0e8 cfbc e8fa 3ebd c4c3 96bd
00000020: 4476 88bd fd58 9d3d f53b 9a3b 780c 903d
00000030: d4f7 653d 2217 073d 70d0 8bbd f2c8 f7bc
00000040: 66a6 fd3c b29e be3c 1199 95bd 0c7a b13d
00000050: 9789 963d 6048 193d b81a 5cbd 2520 233d
00000060: 17da 583d 99ca 203d df5a 3abd 6d40 4e3b
00000070: 1abf 8dbd 8033 38bd 9e19 53bd 3c2c 933d
00000080: cdd9 80bd 458d 053d 6ec8 5d3a 5a44 4abb
00000090: 6f39 bd3c 8ec9 80bd a593 263d 9f51 853d
000000a0: 93bc acbd 661f 3c3d c849 24bc 5a29 853c
000000b0: d3b8 9bbc 8928 c53c 4875 523d a5bc f8bc
000000c0: b228 9bbd 3f48 89bc 108e 743d a30c a9bd
000000d0: 3041 883d b7db 87b8 6a0f 2abd 3560 643c
000000e0: 4d25 353d 9996 9fbd 09e7 9abd 7752 b4bd
000000f0: 2857 513d 685c b1bd 12fc 663d b61f 583d
00000100: 248f a73c 5627 aa3d d976 7fbc 9dc0 4bbb
00000110: 14d4 173d 18bb 79bd f35f 963d 220e 14bd
00000120: 604b 90bd 3fd4 043d 4bea 10bd d6b2 993d
00000130: 9470 58bc b6f1 783d cfa1 bbbc ffad 50bd
00000140: 80d6 a6bc ce8d 51bc 3c33 0f3d 98a0 843c
00000150: b1cd 1dbd 08fd 8bbd fc7f b2bd a9b6 b53d
00000160: de27 a93c 9227 14ba 27ce 883d 8b95 953c
00000170: 28e6 803c 33d9 59bd 8708 83bd 20c7 9bbd
00000180: 6828 65bb ef1a 1cbc 6a78 66bd 8c56 693d
00000190: d309 04bc fca0 f73c 8be9 d2bc cea4 06bd
000001a0: 8f66 3abd e71f 94bc 9c0e c1bc 0c82 3ebd
000001b0: 7a80 a83d 2eae 8f3d ab88 a93d 554d aa3d
000001c0: 3611 05bd 939f 1e3d afb4 07bd f6a8 b03d
000001d0: c35f dcbc cefa 86bd 56ec 2bbd df70 0bba
000001e0: ce51 9abd f561 2b3c 018c ef3a 1bbe 9ebd
000001f0: 4282 953d b754 d1bc edaf a63d 663a 93bb
00000200: 5d01 693d 81f0 af3d 02ee 7fbd fd67 263d
00000210: cf00 773d 0b34 033c 8f27 aabd 565b e8bc
00000220: a90f b93c cb9e 89bd 7d26 a33d 0b13 53bd
00000230: 3996 16bd f143 1f3d 3907 afbd 4441 553d
00000240: 5407 5539 7ce8 1c3c f68d 9dbd 1ad2 9fbd
00000250: 9243 88bd 56ba b9bd bae1 a63d bdae f1bc
00000260: c409 a03c e13c 0f3c c557 31bd 7570 91bd
00000270: 94f7 92bd b4bc ed3c dcdc 9cbc 59ec 2d3d
00000280: 6aa5 6f3d 9b6e 0ebc 5188 073c 491c 6cbc
00000290: 5aab 89bd 096b 823d efc3 8cbd a56d 41bc
000002a0: 397e b23d 17ce 02bd fe51 a23c c1e2 6f3d
000002b0: 163f 7fbd 997f 6b3c 5c09 19bd e0a9 58bd
000002c0: 05a3 a4bd f259 593d 352c 15bd b82f 9d3d
000002d0: 4db2 ab3d 0258 b93a 2718 953d 4778 b0bc
000002e0: 0a9b 4f3d bbfd d3bb b6cd 72bd 3ad2 36bd
000002f0: f68c 60bd 6e39 b53c 1047 72bb efde 8e3d
00000300: 6340 a73c ba06 b6bc bd0e 39bc 0b96 693d
00000310: 91a9 41bd 24aa b23d 4829 b8bb c15a 813c
00000320: 7b17 a33d da53 a3bd e802 6e3d 695e 923d
00000330: 2c03 963d 879a fc3c d702 e1bc 5a3d 7fbd
00000340: 1c75 863d 165c ab3c c8b5 883d 5414 5d3d
00000350: 8c3d 49bd 1f32 713d 97d8 f13b e57b a9bd
00000360: 6cf0 b53b 131b 36bd e282 04bd 955e fbbc
00000370: 2f2c acbd 9c92 77bd 4793 943d dbbb 40bd
00000380: 593d 96bc a7cf 49bc 4f33 903d e2d0 333d
00000390: 9db5 18bd e3bb 8c3b 518c 29bd 9dd4 f13b
000003a0: c0dd 36bd fdf0 58bd f23a c3bc 442a 8cbd
000003b0: d018 21bd 493e f93c 55bc 7dbc 4843 96bd
000003c0: b36e 75bd bda8 58bd 71fb 563d 5f01 80bd
000003d0: eca4 bfbb d5ae 4c3d 9ca4 a7bd 87af 853c
000003e0: 9f3e 0b3d 0ef4 a13d 1fb6 053d 8d27 f7bc
000003f0: 60f5 b23d 54c3 46bc c809 edba 92a8 d03c

action_heads.1.bias f4 [2]
-0.06465693 0.0720258
00000000: da6a 84bd 4382 933d

value_head.weight f4 [1, 128]
0.024839193 0.06465218 0.029272582 -0.070365556 0.0394044 -0.0037627406 0.06664385 0.037332866
0.01850553 0.037031654 0.057451263 0.027814496 0.07949937 0.08466743 -0.06633978 -0.05763419
-0.06554156 -0.06560436 0.04652739 0.06212903 0.00925312 -0.01348455 -0.079163715 -0.08521611
0.022166513 0.021394677 0.031363357 -0.0019706879 0.02248036 0.026223065 -0.038028847 0.07365178
-0.0014025976 0.0024108053 -0.056982297 0.068820626 0.07766625 0.023571631 -0.05644734 -0.048737675
-0.08632356 -0.0035023317 0.04302169 -0.048917297 -0.044913556 -0.048065893 0.019493556 0.04317759
-0.063947834 -0.045407392 0.035824683 0.06469715 0.060061146 -0.017374342 -0.008538719 -0.050908353
0.027242037 0.07087351 -0.005271359 -0.059653025 0.08945285 0.039170977 0.03459449 0.07757377
-0.021814574 -0.0027430903 0.019114638 0.069132045 0.040921785 -0.011251058 0.0684379 0.0065014632
-0.035544764 0.006826272 0.090772726 -0.07853614 0.076906346 -0.06801424 -0.0550812 -0.07375577
0.061614737 0.015168703 -0.057365075 -0.033322994 0.06401632 0.084755845 0.0039164745 0.027121602
-0.028814552 0.038985252 0.025221368 -0.07679813 0.08472148 0.06972145 0.07068422 0.012590127
-0.01707641 0.0660236 -0.06315596 -0.07657653 0.005716482 0.029531937 0.023813143 0.008657816
0.020389928 -0.009260529 -0.052717626 -0.07685411 -0.015439363 0.044052966 -0.04001215 -0.03628143
-0.016645908 0.073831975 0.052736606 -0.040714838 -0.006108058 -0.08468184 0.02669278 -0.04048345
0.035807636 0.018283123 0.012683349 0.004671991 0.062027887 0.007182613 0.050217748 0.044239942
00000000: 907b cb3c 5d68 843d 0ecd ef3c d11b 90bd
00000010: 8266 213d 5098 76bb 927c 883d 59ea 183d
00000020: e998 973c 81ae 173d 0452 6b3d 3adb e33c
00000030: 91d0 a23d 1e66 ad3d 27dd 87bd d411 6cbd
00000040: a73a 86bd 945b 86bd 8193 3e3d 027b 7e3d
00000050: 669a 173c 4dee 5cbc 9620 a2bd c985 aebd
00000060: 8c96 b53c e443 af3c dd76 003d a826 01bb
00000070: bb28 b83c c1d1 d63c 23c4 1bbd bfd6 963d
00000080: 5ed7 b7ba 9afe 1d3b 4566 69bd d4f1 8c3d
00000090: 7c0f 9f3d 4b19 c13c 5335 67bd 28a1 47bd
000000a0: 68ca b0bd 6087 65bb 8337 303d 815d 48bd
000000b0: 47f7 37bd bee0 44bd f3b0 9f3c fcda 303d
000000c0: 15f7 82bd 1afd 39bd e7bc 123d f07f 843d
000000d0: ad02 763d a354 8ebc fce5 0bbc 4785 50bd
000000e0: b12a df3c 2126 913d 5dbb acbb bb56 74bd
000000f0: 0e33 b73d bf71 203d f4b2 0d3d ffde 9e3d
00000100: 7ab4 b2bc 6bc5 33bb 4d96 9c3c 1a95 8d3d
00000110: 9a9d 273d 5c56 38bc 2b29 8c3d 3a0a d53b
00000120: 6397 11bd ebae df3b 0de7 b93d 8ed7 a0bd
00000130: 1381 9d3d 0d4b 8bbd d39c 61bd 440d 97bd
00000140: bc5f 7c3d 2786 783c a4f7 6abd b17d 08bd
00000150: fd1a 833d 7994 ad3d c555 803b 1f2e de3c
00000160: 7f0c ecbc 00af 1f3d 0b9d ce3c 5748 9dbd
00000170: 7582 ad3d 1fca 8e3d e3c2 903d d246 4e3c
00000180: d4e3 8bbc 6237 873d e957 81bd 28d4 9cbd
00000190: 5451 bb3b f6ec f13c c813 c33c 83d9 0d3c
000001a0: c708 a73c 79b9 17bc 70ee 57bd b065 9dbd
000001b0: 62f5 7cbc e270 343d c8e3 23bd d69b 14bd
000001c0: 005d 88bc 3835 973d 5702 583d 9ac4 26bd
000001d0: 1b26 c8bb ac6d adbd d1aa da3c f9d1 25bd
000001e0: 07ab 123d 7dc6 953c d2cd 4f3c 8017 993b
000001f0: f410 7e3d 205c eb3b 20b1 4d3d f134 353d
