models/simple_policy.pt (torch, 32869 bytes, 9 tensors)

shared.0.weight f4 [64, 32]
00000000: 7165 0a3e 5b3f 163e a3a1 29bd 5249 263e
00000010: dfa5 1ebd b01c 123d a642 b0bd 799e d43d
00000020: 8993 1f3e 06cd 04be 6057 1d3e 8f84 073d
00000030: 1bbd 053e da1f c43c 1c92 ae3d 6777 ccbc
00000040: 958b 0b3e d70c d63c 9c03 a9bd eb90 383d
00000050: f2cd a6bd 48d4 a9bc 860b 93bd 7b2a f03d
00000060: 2ae4 0ebe 50e7 a6bd 0e76 4cbd 13af d9bd
00000070: 6dae 883c fdc9 32be ef7a 233e 2ac5 19be
00000080: 836f 0d3e b703 fa3c d3dc 6fbd 9654 de3d
00000090: 6c71 dd3c cf64 0e3e 9269 a13c 8061 62bd
000000a0: 7b15 403d 8700 43bd a05c 983d 2bd3 1f3e
000000b0: 9ae8 cb3d ace3 9ebd 604b cd3d 17d1 ff3c
000000c0: 6c3d b73d 56ab dcbd 980a 35be bf76 8fbd
000000d0: 0a42 0bbe 06d9 113e 5a44 493d d450 923d
000000e0: 83b4 5d3d b01b 9fbb 2bd8 0b3e 6370 02be
000000f0: 5431 193c 73bc fabd 6ffa 573d 6953 80bd
00000100: 48ff 563d 2cba 1dbd 016b 143e bd94 d6bd
00000110: 4ceb d7bd 3c5e dbbd 3b19 213e b14c 713d
00000120: cf77 2c3e 1664 15be 7b8c 33be e03a 0fbe
00000130: eb16 f2bd 8674 8f3d eb72 7c3d 2fb3 143e
00000140: a726 bebd 58ce f6bd 4ead bc3d 3e8d 95bd
00000150: 974d d83d 8dec 28bd ed9c cc3d 8f25 0ebe
00000160: 4410 babd 5208 563d cd12 133d b930 3dbd
00000170: dc62 d43d 9d9f f53d 39fa 04be b6bc c4bd
00000180: a5c0 253e c553 74bd 4059 80bd 4127 2fbe
00000190: 2a54 cfbd 8ee0 343d 8325 bfbc 3f66 03be
000001a0: 2ce0 873b 4a4d f7bd 8293 19be 755c c7bd
000001b0: 296e 1ebe 1886 e6bd d3f2 343e 94c2 083d
000001c0: a721 5f3d 7ad5 28be 0bc7 edbd 6b03 71bd
000001d0: 1673 e23c 6448 1fbe 22fe 9bbd bdbd d8bd
000001e0: 396c 003a 3bb7 86bd b4b3 48bc 0254 f5bd
000001f0: 6880 f8bd c936 d3bd 8dd9 77bd 07e0 0ebe
00000200: 7dc7 173e 0cb4 0fbd 9abf 1b3e 0a9c 613d
00000210: 6049 19be 238b fa3d e339 47bd 63c7 8abd
00000220: 4142 16be 59f6 33be 8e2a 4f3d 962b 1ebd
00000230: 35f3 8c3d 538e 14be df64 063e bfe0 04be
00000240: c60e fabc e13c 173d 32e7 ba3d 8723 123e
00000250: b7e6 243e c488 0fbe 003a 363d e4b8 9bbd
00000260: 1db2 9ebc be7d 07be 0ee2 243e f6db 04be
00000270: f57d c13d 2e78 7e3d 114b 6b3d 1ebc c3bd
00000280: 51cf 1c3e ee9d fd3c 8d83 843c 8881 26be
00000290: bc85 8b3d 8f82 0bbd 09a7 b4bd fe2e 143e
000002a0: 181a 073d 613f d8bd a69c c2bd dec4 54bc
000002b0: 5a39 bf3d 1982 52bd f1e2 dabd efbd 86bd
000002c0: ff9a 0dbe 477d 6b3d 47f5 053e 8012 2fbe
000002d0: 85a3 123d 131a b03d 7753 d33c bebf 8dbd
000002e0: ce24 b03d c66f b13d b31d 753d 30de 18bd
000002f0: 1c60 59bd a991 4f3c d28c 19bd 106a 71bd
00000300: e86a e73d 6491 1b3e 0d5d 8fbc 5f1e 22bd
00000310: 1e0e 293b fcee 2cbc 8c13 2e3d 2be9 4a3d
00000320: 7b69 24be 1e9b 85bd 1471 183e b208 8d3d
00000330: 2e0e 10bc 7346 dabd 427f ddbd b026 22be
00000340: a205 6cbd 2186 743d fcd7 e63d fc26 a73d
00000350: ce02 20be 6ab7 d9bd fd8a e4bc e51b 2f3e
00000360: 867c d13c cd83 3bbd eac7 953d d3e4 89bd
00000370: e254 eabd ab1f 043e a09e a4bd 4727 11bd
00000380: 469a 27be 9f07 063e ba67 133e 79a1 9a3d
00000390: 0ba1 e6bd 5d9d 2abe 3bcf 06be 3a56 133e
000003a0: fa3a c23d d1dc 243e 9bb4 d13d b9ec 523d
000003b0: 5c25 7b3b 542e ffbd ec9c 12be 4460 20be
000003c0: 425b a83d 7eb4 9dbd 479c dfbc 9f85 c2bd
000003d0: e75d c0bc fd6b f3bd 9004 dabd 05a3 8a3d
000003e0: 351a 32bd 270c f23d 7b33 43bd 4709 f7bd
000003f0: 5454 b5bc 6af8 9cbd 466f 38bd 970e 23be
0.1351526 0.14672606 -0.041413914 0.16238907 -0.038732406 0.03567189 -0.08606462 0.10381789
0.15583624 -0.12968835 0.15365362 0.033085402 0.1306042 0.02394097 0.08523962 -0.02495928
0.13627465 0.02612917 -0.082526416 0.04506008 -0.0814475 -0.020731106 -0.07179932 0.117268525
-0.13954225 -0.08149588 -0.049917273 -0.10629096 0.016684735 -0.17459865 0.15964864 -0.15016618
0.1381207 0.03051935 -0.058560204 0.10855977 0.027031623 0.13905643 0.01970366 -0.055268764
0.046895485 -0.047607925 0.07439542 0.15607898 0.099564746 -0.07758269 0.10024142 0.031227631
0.08947262 -0.10774867 -0.17679822 -0.07005071 -0.1359941 0.14242944 0.04913745 0.07144323
0.054127228 -0.0048555955 0.1365668 -0.12738185 0.00935014 -0.12242975 0.052729066 -0.06265909
0.05248955 -0.038507625 0.14493944 -0.10477588 -0.10542926 -0.10711333 0.15732281 0.05891103
0.16842578 -0.14588961 -0.17534058 -0.13987303 -0.118207775 0.07004647 0.06163303 0.14521478
-0.09284716 -0.12051076 0.09212743 -0.073023304 0.10561674 -0.041241217 0.09990869 -0.13881515
-0.09085134 0.05225403 0.0359066 -0.046189044 0.103704184 0.119933344 -0.12986077 -0.09606306
0.1618677 -0.0596502 -0.06267023 -0.17104818 -0.10123475 0.044159465 -0.023333317 -0.12831973
0.0041465964 -0.120752886 -0.14997676 -0.09734432 -0.1547171 -0.11256045 0.17670755 0.03338869
0.054475453 -0.16487685 -0.1161023 -0.05884115 0.027642768 -0.15554959 -0.07616831 -0.10583065
0.0004898939 -0.06577917 -0.012249876 -0.11978914 -0.121338665 -0.10313184 -0.060510207 -0.13952647
0.14822192 -0.035083815 0.15209809 0.05508045 -0.14969397 0.122335695 -0.04863919 -0.06776311
-0.14673711 -0.17574443 0.050577693 -0.038615786 0.068823256 -0.14507417 0.13124417 -0.12976359
-0.030524623 0.036923293 0.09126128 0.14271365 0.16103636 -0.14017016 0.044488907 -0.076036245
-0.01937204 -0.1323156 0.16101858 -0.12974533 0.094478525 0.06212633 0.057444636 -0.09557365
0.1531346 0.030959096 0.01617601 -0.1626035 0.06812617 -0.034060057 -0.08820922 0.14471051
0.03298387 -0.105589636 -0.095025346 -0.01298639 0.09337111 -0.051393602 -0.10687817 -0.06579196
-0.13828658 0.05749252 0.13081847 -0.17096901 0.035800476 0.08598723 0.025796635 -0.069213375
0.0860077 0.08663897 0.059842777 -0.03732127 -0.053070173 0.012669005 -0.037487812 -0.05893904
0.112996876 0.15192181 -0.017500425 -0.039579745 0.0025795768 -0.010555025 0.04249911 0.049538773
-0.16055863 -0.06523727 0.14886886 0.06886424 -0.008792443 -0.10657968 -0.10815288 -0.1583507
-0.05762256 0.059698228 0.112716645 0.081617326 -0.1562607 -0.106306866 -0.027898306 0.17100485
0.025572073 -0.045779992 0.07313521 -0.06733098 -0.11441971 0.12902705 -0.08038068 -0.03543785
-0.16367444 0.13088845 0.14395037 0.0755033 -0.11261185 -0.16661592 -0.1316499 0.14388362
0.09483905 0.1609986 0.10239526 0.051495288 0.0038321828 -0.12460008 -0.14317673 -0.15661722
0.08220531 -0.07700442 -0.027296199 -0.094981425 -0.023482276 -0.118858315 -0.106454015 0.06769375
-0.043482024 0.11818724 -0.047656517 -0.120623164 -0.022134937 -0.07664569 -0.045027994 -0.15923534

shared.0.bias f4 [64]
00000000: 5e25 a83d b066 143d 9e1c 19bd 1343 ab3d
00000010: cc72 843d 6558 29be 07dc d5bd b193 753c
00000020: 705f 893d 0322 b03d 8d83 d7bd 8c7c 2abe
00000030: 2056 ed3a 745e 3dbc 88d1 763d a0d4 66bd
00000040: b664 0a3e fe40 413c 5630 043e d622 e8bd
00000050: 7ac4 a43d 75cf c53c b212 b5bd d97a b33d
00000060: 6520 32be ecc2 0f3e 45a8 b03c b8d2 8b3c
00000070: 566c a73d 2165 d33b 3e30 9b3d 8955 e63d
00000080: 2f47 0dbe ad82 ef3d 3021 8dbc 2e62 28bd
00000090: 6ea2 363d bc43 0a3e 4acf c4bd 0182 03be
000000a0: ff12 d33d f377 b9bd 6486 873d db59 d5bc
000000b0: 8199 4a3d 7a23 0a3e 187b b7bd 2d07 b9bd
000000c0: d707 c43d 8194 1e3c af8d 27bc 6af4 21be
000000d0: c15e 193e 38f6 77bc 3a37 27bd fc9c 94bd
000000e0: 5de3 0ebd 540f c23d 3122 85bb 2ecf 1a3e
000000f0: 1a95 16ba c1bf cfbc 725a cc3d 26e3 95bb
0.08210252 0.036230743 -0.037380807 0.08362403 0.06467208 -0.16537626 -0.104423575 0.014988826
0.067076564 0.08600237 -0.10523138 -0.16649073 0.0018107332 -0.011558164 0.06025842 -0.05635512
0.1351498 0.0117952805 0.12909064 -0.113347694 0.080452874 0.024146775 -0.088414565 0.08763666
-0.1739517 0.140392 0.021564612 0.017068252 0.0817496 0.0064512645 0.07577561 0.11246783
-0.13796686 0.11694846 -0.01722774 -0.041109256 0.0445885 0.13502401 -0.0960985 -0.12842561
0.103063576 -0.090560816 0.0661743 -0.026043823 0.0494628 0.13490096 -0.08959025 -0.09034572
0.09571808 0.009678961 -0.010226651 -0.15815893 0.14977552 -0.015134387 -0.040824153 -0.07256505
-0.0348848 0.0947558 -0.004062914 0.15118095 -0.0005744264 -0.02535999 0.099781886 -0.0045741973

shared.2.weight f4 [64, 64]
00000000: 1862 ccbc 28b1 4f3d 0525 d03d e889 ff3c
00000010: e841 b23d 8cf5 b73d e0ca 103d d408 5d3d
00000020: dc36 253d b06e 543c dcc9 d93d f3e9 fe3d
00000030: 0a35 683d 9c08 4a3b c094 f83d 5177 b4bd
00000040: cc1a bc3d a6a2 873d 0863 a43d d268 02ba
00000050: 3c9e acbd 5f37 c93d f8df 5fbd b0b6 063d
00000060: 1a09 913d 3624 e9bd 88ab 8b3c 3ce0 35bd
00000070: 86b2 b53d bf3c 91bd 7a6f 9b3d 48a2 9f3d
00000080: 303d 8d3d 5ec3 f53d e3b8 e63c 9808 e8bd
00000090: 61be c93d 8cd6 a53c 0092 223b 7920 e2bd
000000a0: 5a0e bdbc f965 57bd e998 063e 8647 b63d
000000b0: 2130 d13d 7451 af3d 0eb0 9ebd 36de 47bd
000000c0: fab9 22bd 7040 4dbd 69ab d93d 4295 393d
000000d0: 8a25 cd3d 9695 503b 15ec d1bd 088b 14bd
000000e0: 5aea b33d 48ab ac3d 2880 1e3d 0c2f 16bd
000000f0: a0ea dbbd 3e8e 89bd 3079 853d e884 4ebd
00000100: cce8 743d 0ccc 0b3d 18a7 44bd 8eec 9b3d
00000110: b485 24bd 8014 88bb 0807 43bd 96d5 f2bd
00000120: a01b a53c c8f3 133d 28e4 80bd da0a 9d3d
00000130: 6ea5 e5bd 2cc7 f6bd 3e1e 9ebd 20f3 30bd
00000140: 7072 63bc c0e2 c5bc c0ab 693d 0eac e0bd
00000150: 10c8 963c c0dd 0d3b 143c 073d 087c fe3d
00000160: 088e 9d3d 96bf 8dbd a4c7 d1bd 50e9 f7bc
00000170: a06a 80bd 20d8 323d 0031 963a 26e8 cd3d
00000180: e41d 493d 8048 bcbc 80c7 8c3b d03b f53c
00000190: 7021 7ebc 4493 ce3d 9e2a c8bd 448d 793d
000001a0: 862f a3bd e046 e0bd 4839 d2bc 0880 793d
000001b0: 3ee1 b43d 887b 003d b001 31bc 809e e5bb
000001c0: 248e 4fbd 40c8 37bc 2081 0dbc b0d8 d93d
000001d0: 90d2 953d 7adb ccbd 008d 073a 3875 9dbd
000001e0: f88c a2bc ec75 cbbd a019 053d 9298 b8bd
000001f0: 84ba fc3d f454 c13d 4a38 b0bd c803 f1bd
00000200: 00d1 9f3b f8ec 0ebd 604e 163d 3e4a adbd
00000210: 2c95 513d ae1e ddbd f01b 87bd 6494 86bd
00000220: 9cc0 773d 007a 56bb f805 f6bd ec34 92bd
00000230: 18f1 6cbd 3e86 edbd b81e 833c ec71 363d
00000240: 90e1 bbbc 6cbf 4bbd 00b9 46ba 0c56 cbbd
00000250: f8e0 9bbd 40d4 3abb b26c e33d bc71 1dbd
00000260: 14c7 7d3d 707f 49bd 144b 08bd a2b2 f3bd
00000270: 9817 d43d 3646 f93d 000f 2cbb 98a7 a23d
00000280: a064 d13d c451 7e3d 4ed8 833d a8b5 f3bd
00000290: 428e f0bd 867d c4bd 7025 203d 1c6f ddbd
000002a0: 8e6a c3bd f82a 78bd 92f3 ebbd 009c 3039
000002b0: 08bb 933c b2cf 95bd b49e a73d d060 42bd
000002c0: 5024 10bd 400a c33d 0aca db3d 90f2 6abc
000002d0: dcc6 b7bd 626d 80bd 3865 823c b610 963d
000002e0: 80e5 7e3d 1817 62bd 8c03 f2bd a209 e0bd
000002f0: 60e5 22bd 0086 cd3a 58fa 65bd a86b cabd
00000300: 80d5 573c c52a b7bd 41c6 c1bd 3a1d d0bd
00000310: 08bd 0abd b389 f53d 9426 483d 776b 90bb
00000320: 30c0 d23c 10e2 4b3d 00ea 3e3a 90b0 babd
00000330: 0164 86bd 59b6 99bd 7243 db3b 661f d6bd
00000340: 502f babc 5c39 3bbd 123b fb3d 8ce4 e33d
00000350: 6427 a83d 7885 893c 8cc5 25bd 9898 023d
00000360: c4e0 b0bd 757d 55bd 04dc 81bc f897 f0bc
00000370: 6682 f2bd 781f 713d b8cf d23d ea33 8dbd
00000380: 9804 0a3d f083 6dbc bd47 ad3b 80c1 ee3b
00000390: e132 f23d e780 d63c 20f7 a1bd 7080 10bd
000003a0: 51c0 863d f32d 423d 16de 453c f824 87bc
000003b0: bd13 20bd 04b9 35bd 5209 87bd 8062 c53c
000003c0: 4d04 383d de07 c43d 4ba4 99bc f612 313c
000003d0: 3a73 a53d 0657 833d c21d d33c a053 1d3d
000003e0: e09b d43b 00d3 cbbd c0e7 9d3b 28d3 dfbc
000003f0: 7146 fb3d 9c12 e73d e826 cb3c 48d0 e43d
-0.024949118 0.05070606 0.10163311 0.031193689 0.08703977 0.08982381 0.035349727 0.053963497
0.04033552 0.012965843 0.10634205 0.12446966 0.056691207 0.0030827885 0.12137747 -0.0881182
0.091847986 0.066228196 0.08026701 -0.0004974726 -0.08428618 0.09825014 -0.054656953 0.032889068
0.07081814 -0.1138386 0.017049566 -0.0444033 0.08871941 -0.070916645 0.07589622 0.077946246
0.06896436 0.12000154 0.028164333 -0.11329764 0.09850765 0.020243905 0.002480626 -0.1104135
-0.023078132 -0.052587483 0.13144268 0.08900361 0.10214258 0.08560458 -0.077484235 -0.0487959
-0.039728142 -0.05011028 0.10628397 0.04530836 0.10016926 0.0031827441 -0.10250107 -0.036265403
0.087849334 0.08431107 0.038696438 -0.03666596 -0.107381105 -0.06716584 0.06517255 -0.050419718
0.059792325 0.03413014 -0.048010916 0.076134786 -0.04016657 -0.0041528344 -0.047614127 -0.118571445
0.020154774 0.03612116 -0.06293517 0.076680854 -0.11213194 -0.12049708 -0.07720612 -0.043200612
-0.0138822645 -0.024155974 0.05704856 -0.10970317 0.018405944 0.0021647066 0.03301628 0.12426001
0.07693106 -0.06921308 -0.102431566 -0.03026262 -0.06270337 0.043663144 0.0011458695 0.100540444
0.04910077 -0.02298379 0.004296243 0.029935747 -0.015510902 0.100866824 -0.097737536 0.060925737
-0.07968049 -0.10951018 -0.02566208 0.060913116 0.08832024 0.03136781 -0.010803625 -0.00700742
-0.050672665 -0.011217177 -0.008636743 0.10637033 0.07315552 -0.10002799 0.0005170852 -0.07688373
-0.01984261 -0.09934601 0.03249514 -0.090134755 0.123402625 0.09440032 -0.08604486 -0.11768299
0.0048772097 -0.03489396 0.036695838 -0.08461426 0.051167652 -0.10796867 -0.065971255 -0.06571272
0.06048642 -0.0032726526 -0.12012857 -0.07139 -0.057847112 -0.1159787 0.016005859 0.044542238
-0.022934705 -0.0497431 -0.0007580668 -0.099285215 -0.07611269 -0.0028507859 0.11104716 -0.038438544
0.061957434 -0.0491938 -0.033274725 -0.11899306 0.10356063 0.12171595 -0.0026254058 0.07942122
0.10224271 0.062089697 0.06437741 -0.118998826 -0.117458835 -0.09594254 0.039098203 -0.10812208
-0.09541808 -0.060587853 -0.11521067 0.00016842782 0.01803352 -0.07315005 0.08184567 -0.04745561
-0.03519088 0.095234394 0.10731895 -0.014340058 -0.08973476 -0.06270863 0.015917405 0.07327406
0.062230587 -0.055197805 -0.11817083 -0.10939337 -0.03976953 0.0015680194 -0.05614695 -0.09883815
0.013173461 -0.089437045 -0.09461642 -0.101618245 -0.03387168 0.11989155 0.048864916 -0.004407342
0.025726408 0.049776137 0.00072827935 -0.09115708 -0.06562043 -0.07505483 0.0066913897 -0.104552075
-0.022727638 -0.045709 0.12267126 0.11127576 0.08210638 0.016787276 -0.0404716 0.031883806
-0.08636621 -0.0521216 -0.015851982 -0.02936934 -0.11841278 0.0588679 0.102935255 -0.068946674
0.033695787 -0.014496788 0.005288093 0.0072862506 0.11826111 0.026184512 -0.079084635 -0.035278738
0.0657965 0.0474071 0.012076875 -0.01649712 -0.039081324 -0.044365898 -0.065935746 0.02409482
0.044925977 0.09571813 -0.018755099 0.010807743 0.08078618 0.06413083 0.025771026 0.03840983
0.0064883083 -0.099523544 0.0048188865 -0.027322367 0.12269295 0.11282846 0.024798825 0.11172539

shared.2.bias f4 [64]
00000000: c1a4 6fbd fa1a 91bd 48e3 95bd 528a 50bd
00000010: 703f 98bd 9910 73bd 7913 5dbd 6d5f d7bd
00000020: eee9 cc3d 6124 273d e0a1 febd acdf ffbd
00000030: 9ab9 8cbd c988 6a3d a3db d93d 7882 9fbc
00000040: 26f1 913d 9878 6fbd c88a d4bc d0be 9ebc
00000050: 59be 05be 00f4 2a3a 5882 073d dc08 9c3d
00000060: 4214 c6bd 3429 1abd c085 9a3b 68da 913b
00000070: 95bc 553c 402a bebd ba28 d93d 8f77 f9bd
00000080: fa3b 51bd a824 7f3d d069 09bd 64bf 86bd
00000090: b28d fcbd 9451 b03d 00f1 37bb c44e 773d
000000a0: 0c8b ec3c 8661 bebd c732 10bd 4089 b63d
000000b0: 055d 55bd c819 88bd fad4 9e3d ca37 39bd
000000c0: e66f 8a3c 28e8 78bd 9e7d 423d 86ec bb3c
000000d0: b633 cbbd e447 d4bd 7e37 623d c971 4bbd
000000e0: 724c 743d afd2 803a 14c7 4fbd 4830 b2bc
000000f0: cf02 44bd 6c5b 6e3d 920f cb3d e7e2 a73b
-0.05850673 -0.070852235 -0.07318741 -0.050913163 -0.07433975 -0.059342 -0.05397365 -0.10516248
0.10005556 0.040806178 -0.12433219 -0.12493834 -0.06871338 0.057259355 0.106375955 -0.019471392
0.071260735 -0.058464617 -0.025945082 -0.019378096 -0.13060893 0.0006521344 0.03308329 0.07618877
-0.096718326 -0.03763695 0.0047156513 0.004451085 0.01304545 -0.09285402 0.10603471 -0.12181007
-0.05108259 0.062290817 -0.033548176 -0.065794736 -0.12331714 0.0860931 -0.0028067231 0.06037785
0.028874896 -0.09295945 -0.035204675 0.08912897 -0.052090663 -0.066455424 0.07755466 -0.04521922
0.01689906 -0.060768276 0.04748308 0.022939932 -0.099219725 -0.103652745 0.055228703 -0.04966906
0.059643216 0.0009828414 -0.050726965 -0.021751538 -0.04785424 0.058192655 0.09915079 0.0051234844

action_heads.0.weight f4 [10, 64]
00000000: 95cc 9bbd ec07 b83d ee4e d03d a584 b73d
00000010: c044 14bb 896b 0f3d 17ce 423c 1b5e 30bd
00000020: 2e7c fdbd 3303 7abc 2071 5d3d f853 953d
00000030: 77bb 113d e641 7c3d dd7d ad3d d0f6 c5bc
00000040: 8cc7 b03d 0a32 053b 9453 35bd 80d2 46bd
00000050: ee79 87bd b82b c5bd 4094 ea3c a28e ec3d
00000060: b891 913c d065 8a3c b012 40bd d4b4 35bd
00000070: fcba 08bd e438 313d 29a1 d63c 3870 26bd
00000080: e2d0 003d d8e8 b2bc 3215 e2bb 8a95 c03d
00000090: 7459 55bd e2dc ee3d 0a06 8cbd d42c ed3d
000000a0: 2062 523d 3895 4d3d 2763 c4bc bc87 0bbd
000000b0: ffbe b2bd 50c2 e9bd 4384 bc3d 00c7 003e
000000c0: 794e 1f3d 1c45 48bd 03b8 023d ca41 3ab9
000000d0: fa49 ddbd 1fce c2bd a159 443d 101c 01bd
000000e0: b80e c7bc 11dc 92bd 5c85 7e3d 522f 81bd
000000f0: dc76 14bd bb50 8f3d 9c19 f63d 2a69 ed3d
00000100: bcae 653d 4080 913b 9a67 c03d 8307 f03d
00000110: c4db 653d bf8b 313d b1fc 183d ac20 9f3c
00000120: 4af8 a83d 3de4 103d 22d8 d7bd c838 97bd
00000130: d6c7 dcbd 571b fbbc fa7d 593c 9412 59bd
00000140: 599e ddbd 0c4a 98bd 18e7 593d e043 10bc
00000150: 5bc5 6dbc 70c9 a53c 684d d8bc 5c83 8bbd
00000160: 78f3 6abd f4b0 50bd 789f efbd b66c ddbd
00000170: a9bf 25bd 2c22 403d b43e 043e 28f0 7a3b
00000180: 4aa0 bc3d a44b 293d 1a28 c8bd 9fb3 6abd
00000190: b07b 0cbd 88ff d2bd f069 8f3c c83b f33c
000001a0: c2fa b9bd 4885 d7bc e3a0 d3bd d8ed fe3d
000001b0: 4cec a33d 7556 23bd 5100 ea3d e358 92bd
000001c0: dea1 dd3d f009 45bd d1a6 313d dec4 bf3d
000001d0: a45f 6e3d c106 193d 41c0 f8bb d603 033c
000001e0: 3743 e93d 3c06 18bd 4f76 09bd 80db 823c
000001f0: cb00 60bd e6d9 34bd 8008 203c ac50 ce3d
00000200: f3d5 4c3d 282f 9ebd 4494 9a3d e2ce 16bd
00000210: 540a 043d 4b1d 8c3c 39f9 c53d 4efb 95bc
00000220: 5c09 50bd 41fc cbbc 00e8 943a d49e 71bd
00000230: eaaf b93d 6874 6dbd dd8b da3c c68c c4bd
00000240: b4e3 00bc d7e4 93bc acd4 4cbd 90d3 853d
00000250: 35fc d6bd e0ce 563c c095 3fbc 5423 85bd
00000260: 1815 c73d 3eb5 a03d b4b8 1a3d 511b 303c
00000270: cddb 9b3d 44e6 60bd 3c09 bebd dfac 023e
00000280: c6f2 26bd b067 cd3c b443 843b 8d93 e03d
00000290: 82a3 fe3d 383c acbd 80bd aeba 2a8b cfbd
000002a0: 20b5 b83d ba6c f43d 812d 1fbd a897 b93c
000002b0: 754e 8cbc acb4 babc 5026 de3d 41b2 dabd
000002c0: 5ca0 68bc 0061 06ba 67c6 cebd 54d8 783d
000002d0: 9ab7 aa3d c5bc babd ecd5 6a3d 4af6 0339
000002e0: 2e6a ff3d cbb5 ebbd 6bc5 e63d 7c35 3ebd
000002f0: 7db2 ed3d 963c 79bd d870 ad3c 7239 1d3d
00000300: 7c67 923d 98fa 6f3d ec11 8f3d 5f1e 04bd
00000310: 168a cabd 73c5 94bb 4c02 dd3d 1dff d03d
00000320: e4a0 96bd e61e b03d 6c46 663d 484b b9bc
00000330: e40a 823d a4f2 38bc 3320 123c f0be a7bd
00000340: 3817 aabc 4b2f ee3d 7a97 9e3d 40e4 cebd
00000350: 783d 56bc 8411 a33d dc1a 5bbd c842 80bc
00000360: b862 7f3d d227 d73d 8043 e83d da7c c5bd
00000370: 6ac7 fdbd c2ea b43d 1bd9 80bc a591 da3d
00000380: 66b2 a93d 00e2 47bd c6c6 093d 92f8 183d
00000390: 4441 37bd dc01 e63d c00c 283c 4457 27bd
000003a0: 441e f6bd e8e1 cc3d a320 05be 78da c23d
000003b0: 596f 4cbd 9337 eebc cc7a 313c 2e33 ef3d
000003c0: 25ad aebd e0cf b5bd 8374 8d3d 4bbd 88bd
000003d0: f06a 3cbd 5695 873d 44c8 6cbd 6b03 8c3d
000003e0: 35d1 60bd 2dff bd3d 0423 f23d 30a3 8d3c
000003f0: 30d7 3ebd 96ba 893d c01b 0f3d 3016 b2bb
-0.0760738 0.08985886 0.10171305 0.08960847 -0.0022623986 0.035014663 0.011889956 -0.043058496
-0.12377201 -0.015259552 0.054062963 0.072914064 0.03557917 0.061586283 0.08471272 -0.024165541
0.086318105 0.0020324015 -0.04426916 -0.048540592 -0.06615053 -0.09627479 0.028635144 0.115506425
0.01776968 0.016894251 -0.04689282 -0.044361904 -0.033381447 0.043267146 0.026199894 -0.040634364
0.031449206 -0.021839544 -0.0068994993 0.09403522 -0.052087262 0.11663224 -0.06837089 0.11580816
0.05136311 0.050191134 -0.02397306 -0.034064993 -0.08727836 -0.11414015 0.092049144 0.12575912
0.038893197 -0.048894033 0.03191377 -0.0001776285 -0.108051255 -0.09511971 0.04793704 -0.031520903
-0.02429901 -0.071708806 0.0621389 -0.06307854 -0.036246166 0.0699782 0.12016603 0.11592324
0.056074843 0.0044403374 0.093947604 0.11720183 0.056117788 0.043346163 0.03735036 0.019424759
0.082504824 0.035373915 -0.10539271 -0.07383877 -0.10780303 -0.030652685 0.013274664 -0.052996233
-0.10821218 -0.07435998 0.053198904 -0.008805245 -0.014512385 0.020237654 -0.026404098 -0.06812164
-0.057361096 -0.050950006 -0.11700338 -0.108117506 -0.040465984 0.04690759 0.12914544 0.0038290117
0.0921026 0.041331902 -0.09773274 -0.057300206 -0.034297645 -0.10302645 0.01750657 0.029691592
-0.090810314 -0.02630867 -0.10333421 0.12447709 0.080040544 -0.039877374 0.114258416 -0.0714586
0.10821889 -0.04810518 0.04337198 0.09363721 0.05819668 0.037359957 -0.007591278 0.00799652
0.11389773 -0.03711532 -0.033560093 0.015973806 -0.054688256 -0.044153117 0.009767652 0.10073981
0.050008725 -0.07723838 0.07547811 -0.036818393 0.032236412 0.017103812 0.09666676 -0.018308308
-0.050790176 -0.024900557 0.0011360645 -0.05898936 0.09066756 -0.05797234 0.02667802 -0.09597163
-0.007866789 -0.018053455 -0.050007507 0.06534493 -0.104973234 0.013110846 -0.011693418 -0.06500879
0.0972082 0.07847069 0.037773803 0.0107487 0.07610283 -0.0549071 -0.09279105 0.12761258
-0.04075887 0.025073856 0.004036391 0.10965643 0.124335304 -0.08409923 -0.0013331622 -0.10133965
0.09018922 0.119348004 -0.038861755 0.022655323 -0.017127255 -0.02279123 0.10847151 -0.106785305
-0.014198389 -0.00051261485 -0.10096436 0.06075318 0.083358005 -0.09118036 0.057332918 0.00012584883
0.12471424 -0.11509284 0.11268123 -0.046437725 0.116063096 -0.060848795 0.021171972 0.038384862
0.07148644 0.058588594 0.0698584 -0.032255527 -0.09889619 -0.0045401393 0.10791454 0.10204909
-0.07354906 0.085996434 0.056219503 -0.022618905 0.063497335 -0.011288319 0.00891881 -0.08190715
-0.020763025 0.11630114 0.077437356 -0.10102129 -0.013076179 0.07962325 -0.053492412 -0.015656844
0.062350005 0.10505642 0.113409996 -0.09642954 -0.12391551 0.08833839 -0.015728524 0.10672311
0.0828598 -0.048799515 0.03363683 0.03734643 -0.044739977 0.112308234 0.010256946 -0.040854707
-0.120174915 0.10004026 -0.13000731 0.09514326 -0.049910877 -0.029079234 0.0108325 0.116796836
-0.085291184 -0.0887754 0.069069885 -0.0667673 -0.04600042 0.066202804 -0.057808176 0.068365894
-0.054887015 0.092771865 0.11823085 0.017289728 -0.046591938 0.067250416 0.034938574 -0.005434774

action_heads.0.bias f4 [10]
00000000: 3425 c7bd e77d e73d 3426 cd3d 748f cf3d
00000010: 0734 7bbc d168 69bc a8f7 d6bd ad90 cf3d
00000020: 7a49 aa39 06a2 e9bd
-0.09723893 0.11303311 0.10017052 0.101347834 -0.0153322285 -0.014246182 -0.104964554 0.101350166
0.0003247967 -0.11407857

action_heads.1.weight f4 [2, 64]
00000000: 59b1 e43d 0066 84bc 7ef8 993d d86b edbc
00000010: e817 a1bc 5879 ca3d ffad c23d 74d9 8dbd
00000020: c0f2 7f3b b4e1 ad3d a0da c43b 7888 b8bc
00000030: 34fb da3d cfcb ce3d 04c5 29bd 5ad3 c13d
00000040: 0ae6 acbc 36fd d2bb 265b cd3d f0e4 1ebc
00000050: 862b a3bc 0083 debc 14bd d5bd 7438 c63d
00000060: acd7 c8bd 647e c4bd 5898 8a3c 0444 babc
00000070: 0032 3abb 3021 213c 05d6 e83d fc72 05be
00000080: c7de a6bd d8e4 bc3c 2eae e7bd 3763 d3bd
00000090: ba28 c43d 3040 463d d0d0 1ebd 041d 073d
000000a0: 6083 353c 00c5 49bc d1b3 bf3d 00f0 0bb8
000000b0: a8ab 9d3d f853 d9bd c812 7bbd 71bc 2b3c
000000c0: 4ec8 823d 5452 50bd e8fe a23d 4d3a eabd
000000d0: ac4d 43bd 3937 ad3d 2e44 d4bd e3c1 01be
000000e0: 50cc 25bd e51c dcbd f89b f63c 8009 b4bc
000000f0: 05a1 47bd 8a92 873d 604e ee3b df5c fcbd
00000100: 97f9 dcbd 5ac7 a03d f4cc 5c3d 563f a23d
00000110: f46b d9bd c701 56bc 7597 ec3d b525 e53d
00000120: dc09 ae3d e4a8 ed3d 4471 20bd cc2e c6bd
00000130: 90a5 993d 7d63 b83d 6130 f4bc 1030 3fbc
00000140: 1953 313b 394c cebd 7811 54bd 383d 22bd
00000150: c9ca 5d3d 7063 15bd a413 673d a083 e63d
00000160: 9048 dabc 1099 f9bc 14cb a0bd 60f5 0d38
00000170: 766b dabd 9c09 ad3d 71b8 f13d 543c 2d3d
00000180: 8511 ff3d daf2 803d c279 ad3d df96 f53d
00000190: 3402 b0bd c0ac 20bc d859 403d d40b 09bd
000001a0: c582 9fbd c0c3 20bd 0e0b 54bd 5c93 33bd
000001b0: a812 abbd 98a5 ecbc bc34 a83d 400e 35bd
000001c0: a406 663d 3e87 d2bd 38a0 8bbd af84 c13c
000001d0: d612 ed3d a12d d9bd 7c6a 843d e663 003d
000001e0: 65e5 bebd 070b b3bd 087b 8f3d a4d4 7fbd
000001f0: 90dc cb3d a608 abbd 6664 c13d 3013 5abd
0.11166639 -0.016161919 0.07518099 -0.028982088 -0.01966472 0.09886426 0.09505843 -0.069262415
0.0039054602 0.08490315 0.0060075074 -0.02252601 0.106924444 0.10097467 -0.041447654 0.0946414
-0.021105785 -0.0064388765 0.10027151 -0.009698138 -0.019918215 -0.027162075 -0.104364544 0.09678736
-0.09806761 -0.095944196 0.016918346 -0.02273751 -0.002841115 0.009834573 0.11368946 -0.13032144
-0.0814796 0.02305834 -0.11312519 -0.10321658 0.095780805 0.048401058 -0.038773358 0.032986656
0.0110786855 -0.012315035 0.09360469 -3.33637e-05 0.076987565 -0.10611719 -0.061297208 0.01048194
0.06385861 -0.050859764 0.07958776 -0.11436901 -0.047681496 0.084577985 -0.10364567 -0.12671618
-0.04047805 -0.10747699 0.030103669 -0.021977186 -0.048737545 0.06619747 0.0072725266 -0.12322401
-0.10789793 0.07850523 0.053906396 0.079222366 -0.106162935 -0.013061947 0.11552326 0.11188833
0.08497974 0.11604479 -0.03917052 -0.096768945 0.07502282 0.09003351 -0.029808225 -0.011669174
0.0027057587 -0.10073132 -0.051774472 -0.039609164 0.05414847 -0.036471784 0.056415215 0.11255574
-0.026645929 -0.030468494 -0.07851234 3.3845543e-05 -0.10665028 0.084490985 0.118027575 0.04229386
0.124545135 0.0629632 0.08470489 0.11991667 -0.0859417 -0.009806812 0.04696068 -0.033458546
-0.07788614 -0.03924918 -0.051768355 -0.043841705 -0.08353168 -0.028887555 0.08213183 -0.044203043
0.056158677 -0.10279702 -0.06817669 0.023622839 0.11575858 -0.10604406 0.06465623 0.03134527
-0.09321097 -0.08742338 0.07005888 -0.06245865 0.09954178 -0.08351259 0.094429776 -0.053240955

action_heads.1.bias f4 [2]
00000000: 3bf5 263d a1a3 413d
0.040761214 0.04727519

value_head.weight f4 [1, 64]
00000000: 7618 dcbd b841 86bd 180c f8bc a1ef 11bc
00000010: 9cdc 7c3d f5f4 79bd 2d08 2a3c f8b5 9ebd
00000020: 245f 73bd 09eb a43d 643a 0cbd ec50 e0bd
00000030: 24b7 b739 c3ab dcbc dad6 e93c 4897 82bd
00000040: 4b4b 91bb 4756 91bd 8ab7 9abd 4814 ea3c
00000050: ce3a 003d d870 bd3c 6078 ec3d 30da 3d3c
00000060: c027 2e3c a0df 85bc 4280 f7bd ef55 243d
00000070: d263 b93d 90f1 4a3c 6d87 dabd 759a d43d
00000080: 30ea b53c a22a b93d a79b 553d 0947 753c
00000090: 08da 16bd b83a d23c f8bd 243d 2051 f8bb
000000a0: 23ec b7bd d689 86bd 9bb9 fdbd 883f 48bd
000000b0: ec21 f8bc b13f c03d 92bb 9cbd edac 07be
000000c0: be0f 863d 7ab9 dc3d 99b0 dabd cd82 34bc
000000d0: 94c7 223d 25b4 933d 1786 01bd 2fc9 443d
000000e0: ffbf b33d c1d3 8b3d 0267 5d3d 56af 9b3d
000000f0: e39e fabd 446d c13c 7a6b c53d 9101 debd
-0.10746853 -0.065555036 -0.030279204 -0.00890723 0.061733827 -0.061024625 0.010377926 -0.077495515
-0.059416905 0.08052642 -0.034235373 -0.109529346 0.0003504093 -0.026937371 0.028544832 -0.06376511
-0.0044340244 -0.07096534 -0.075545385 0.028574124 0.03130608 0.023125097 0.11546397 0.0115876645
0.010629594 -0.016341984 -0.1208501 0.040121015 0.09052242 0.012386695 -0.10670362 0.10381023
0.022206396 0.09041335 0.052150395 0.014970549 -0.036829025 0.025662765 0.04022023 -0.00757803
-0.089805864 -0.06569259 -0.12388917 -0.048888713 -0.030289613 0.09387148 -0.07652964 -0.1324956
0.06545971 0.10777564 -0.106782146 -0.011017513 0.039741114 0.07212094 -0.03162202 0.048043426
0.08776855 0.06827498 0.054053314 0.07601802 -0.122373365 0.023611672 0.0963964 -0.108401425
